hw12/best_predictor_model.bin (torch_old, 663250 bytes, 6 tensors)

layer.0.weight f4 [256, 512]
000000 46 6d b0 3c c1 70 8f bc 48 49 d7 bc f6 41 ae 3d
       0.02153648 -0.01750982 -0.02628006 0.08508675
000010 b4 d6 0a 3d 3d 5a 9a 3c 49 fa 5e bc af 35 81 3c
       0.033896163 0.018841857 -0.013609477 0.015772669
000020 0d 09 89 3d 52 69 2a 3d 4d 14 56 3c bf 2a 4f bc
       0.066911794 0.041604348 0.0130663635 -0.012644469
000030 06 e4 9c bc 55 0d 4f bd bf 4d d2 3c 5d ca d1 bc
       -0.019151699 -0.050549824 0.025671838 -0.02560919
000040 37 d5 06 bd bb 74 38 3d db 60 64 3d fa 88 0b bc
       -0.03291818 0.045033198 0.05575643 -0.0085165445
000050 14 49 03 3c 84 33 c1 bc 26 d9 27 3c c7 31 25 bd
       0.008013029 -0.023584135 0.010244643 -0.040330674
000060 cb bf b5 bc 55 6a 4d bb 8c f8 20 bd 7b c0 6b 3c
       -0.02218618 -0.0031343896 -0.039299533 0.014389153
000070 fe 1c 88 3c 27 eb 0d 3d e1 6b 6e bd 44 ab 49 3d
       0.016615387 0.034648087 -0.05820835 0.049235597
000080 c5 c4 a7 bb c3 36 58 bd a6 3a 8f 3b 18 25 af b9
       -0.0051198923 -0.0527866 0.004371005 -0.00033406238
000090 11 92 06 bd 17 c5 32 3d 56 d7 47 3d 0d 9c f0 bc
       -0.032854144 0.04364499 0.048789345 -0.029371286
0000a0 46 13 5e bd 9d 3c 21 bd a4 0f 22 bd dc 7b de 3c
       -0.0542176 -0.039364446 -0.039565697 0.02715867
0000b0 24 9b c5 3b c3 98 a0 bc e9 13 b8 3c 30 99 03 3d
       0.006030457 -0.019604092 0.022470431 0.032128513
0000c0 e4 6e 4d 3d b9 c6 00 3d 1f a3 0d bd cb 6e a1 bb
       0.05015458 0.031439517 -0.034579393 -0.0049265376
0000d0 9b c3 18 bd ef f3 7f 3c 6a 36 d3 3c 95 91 8a bc
       -0.03729592 0.015622123 0.025782783 -0.016915122
0000e0 11 74 28 3d 8b b4 22 bd d7 ea 02 bc fa ae 1f bd
       0.041126315 -0.03972296 -0.0079905605 -0.03898523
0000f0 ee 5c f9 bc fe 06 13 bd 80 8a 47 3d 27 46 b4 3d
       -0.03043982 -0.03589534 0.04871607 0.08802443
000100 55 a0 25 bd ab 5b d1 3c bf 9d 2b 3d c9 09 8e bd
       -0.040436108 0.025556406 0.041898485 -0.0693546
000110 44 c8 0d 3d 86 87 8e bc bc ff bb 3c 1f ed de bd
       0.034614816 -0.017398607 0.022949092 -0.10885071
000120 4f 6c 15 3d da c4 15 3d 38 b0 93 bc 03 88 89 3d
       0.036480244 0.036564685 -0.018028364 0.06715395
000130 ef c2 bc 3c dc 04 8c 3d 03 41 24 3d 81 12 f9 3c
       0.02304217 0.06836864 0.040101063 0.030404331
000140 67 86 06 bd 8c 34 9c 3d 74 21 93 3c fe 1c f6 39
       -0.03284302 0.0762721 0.017960288 0.00046942377
000150 42 cd 08 bc 59 5c 7f 3c 7e a3 ce bc 24 be 12 3d
       -0.0083497185 0.015585982 -0.025224444 0.035825863
000160 bc 0a 2b bd 2e 2e 03 3d 18 8a 17 bd d3 8c c3 bb
       -0.041758284 0.032026462 -0.03699693 -0.0059677153
000170 9e 90 dc bc 4b 58 e8 bc fe dd f8 3c cb 8a 6a bd
       -0.026924428 -0.028362414 0.030379292 -0.05726127
000180 9a df 2e bd 70 2b 89 3c a2 c9 b8 bc 49 8c af 3d
       -0.04269371 0.016744345 -0.022557084 0.08571679
000190 90 53 66 3d 77 96 a7 bb 35 5b e9 3c 35 a8 1f 3a
       0.056232035 -0.0051143724 0.028485874 0.00060904335
0001a0 31 b5 55 bc 25 8c c1 3c 3f 57 2d bd 10 08 91 3c
       -0.013043688 0.023626396 -0.042319532 0.01770404
0001b0 5f 55 84 3b 25 db d3 3d 43 7d dc bc 3c 3d 84 3d
       0.0040384973 0.10344533 -0.026915198 0.06456992
0001c0 5a 45 31 3c 54 d5 90 3c e3 ef d1 3b 13 bc 11 3c
       0.010819757 0.017679848 0.0064067706 0.008894938
0001d0 9b 6a de bc 9f 6b 79 3b 52 33 b3 bc c2 32 51 bd
       -0.027150443 0.0038058532 -0.021875057 -0.051073797
0001e0 50 8a f9 bb 57 f5 56 bd 0a c5 0a bd 6a 02 8e bc
       -0.007615365 -0.052480068 -0.033879317 -0.017335135
0001f0 e0 04 24 bc 1d d8 82 bb 49 2b 9f 3d 73 f3 33 bd
       -0.010010928 -0.003993048 0.07771928 -0.043933343
000200 86 f7 08 3c bd 54 7b bc bc ea 24 bd fc 62 1e 3d
       0.008359795 -0.015340027 -0.040262923 0.038668618
000210 a1 fc 06 bd dd bd 7c bc 12 a4 51 bd 5c b8 d1 bd
       -0.03295577 -0.015426126 -0.05118186 -0.10240242
000220 fb e3 fc bc 3c 39 76 bc db d0 15 bd 58 16 1c bd
       -0.030870428 -0.015028294 -0.036576133 -0.038107246
000230 2a 16 d2 bb e5 f2 09 bd ef 79 d8 ba 35 b7 cc bb
       -0.0064113336 -0.033678908 -0.0016515831 -0.006247426
000240 fe 82 30 3d a4 4b d3 3d 60 d1 5a 3d 74 09 20 3d
       0.043093674 0.10317162 0.05342233 0.039071515
000250 c7 e8 b1 ba c2 3f 69 3c 59 23 9b 3c b6 09 1f 3d
       -0.0013573401 0.014236392 0.018937754 0.03882762
000260 7e 12 16 3d b4 92 37 3c bf 2b 17 bd c4 2d e7 3c
       0.03663873 0.01120441 -0.036906954 0.028220065
000270 aa 51 a3 bc 08 2a 41 3c d3 46 e3 bc 0c 29 c8 3c
       -0.019936401 0.011789806 -0.027743733 0.024433635
000280 3e 78 25 bc 3e 2c ef ba ee 41 0a 3d ca b1 e5 bd
       -0.010099469 -0.0018247438 0.03375428 -0.11215551
000290 7f 78 1a 3d a6 50 44 3c 35 1c bf bc b2 0e 9c bc
       0.03771257 0.011982119 -0.02332888 -0.019049976
0002a0 2b 3c 74 bd d1 16 0e 3d 4b f0 0d bd fd f9 c2 bb
       -0.059627693 0.03468973 -0.03465299 -0.005950211
0002b0 6f 1b 57 3c d4 9f 8a bd d5 80 15 bd bd ef 9b 3d
       0.013129099 -0.06768766 -0.036499817 0.07614086
0002c0 f2 fd 5f bc 72 fd 33 3d 42 3c 87 bd 91 9c c3 ba
       -0.013671385 0.043942876 -0.0660329 -0.001492398
0002d0 87 03 a4 3b 51 5f 03 bd 38 51 ad 3c 60 22 fb bb
       0.0050053033 -0.032073323 0.021156892 -0.00766401
0002e0 10 9c 35 bd ff 02 da 3c 67 96 b8 bc 69 c0 30 3d
       -0.044338286 0.026612757 -0.022532655 0.043152247
0002f0 e4 e2 18 bb 3d da 07 3d cb ed 22 bd 6f 40 1a bc
       -0.0023328597 0.033167113 -0.03977756 -0.009414776
000300 d8 b5 2f 3d 56 a6 24 3d e6 d1 97 bc 22 5f d9 3a
       0.04289803 0.040197693 -0.018532705 0.0016584138
000310 98 d5 f0 bb fc db 6b 3d 01 1e 41 bd ac 5b 9e 3d
       -0.007349681 0.05758284 -0.047147755 0.07732329
000320 e3 27 25 3a 1f e5 dc bc ad 25 2c 3d b3 ba 76 3d
       0.0006300194 -0.026964722 0.042028118 0.060236644
000330 c4 0b 3c bd 15 d5 a2 bd 49 d4 e3 3b 32 e8 c1 3c
       -0.045909658 -0.079507984 0.0069527966 0.02367029
000340 e1 be 39 3d 9b 06 32 bc 16 f0 e8 b9 6a a6 08 bd
       0.045348052 -0.010865833 -0.00044429366 -0.03336183
000350 09 f4 28 bc 51 84 22 bd c3 ac 6c 3d 7f f6 f3 3a
       -0.010312089 -0.039676968 0.057781946 0.001861289
000360 d1 36 63 bd 49 22 98 bd e6 92 a4 bc a2 38 1b bd
       -0.0554722 -0.074284144 -0.020089578 -0.037895806
000370 52 a6 b8 bc 32 f3 e8 bc 01 cf cf bc 93 c7 70 3c
       -0.022540245 -0.028436277 -0.025367262 0.01469602
000380 aa 30 36 3c 89 55 07 bd 23 2b 47 3d 06 43 85 bc
       0.011120001 -0.033040557 0.048625123 -0.01626731
000390 08 25 ab bd 6b 4d f6 3a 17 5c fd 3b c2 0b e9 bc
       -0.083566725 0.0018791383 0.007731925 -0.02844799
0003a0 ff 86 c0 bc 43 64 64 3c 4b 42 0e bd 8f 14 f8 3c
       -0.023501871 0.01393992 -0.03473119 0.03028324
0003b0 28 71 67 3c 4b 8c 9e bb e6 7d 10 3d a6 a4 22 be
       0.0141261 -0.0048385016 0.035276316 -0.15883121
0003c0 1f f7 4b 3c 02 57 e4 3b aa 86 1f bd 37 a0 61 bd
       0.012449055 0.00696838 -0.038946785 -0.055084433
0003d0 0e 54 71 3d b8 ce a7 3c f6 b9 e9 bc a2 3e 9f bc
       0.05891805 0.020484313 -0.028531056 -0.019439045
0003e0 e5 d3 bd 3c 57 85 8e 3d 03 f1 8e 3d 6d 67 c1 3c
       0.023172328 0.06959026 0.06979563 0.023608888
0003f0 a0 d9 65 3a 85 81 db 3c 23 65 44 3d 5f ef 35 bd
       0.00087680854 0.026795158 0.047948014 -0.044417735

layer.0.bias f4 [256]
000000 1f 85 22 3d e9 c9 55 3c 88 fe b6 3b 21 ec d0 bc
       0.039677735 0.013048627 0.0055845417 -0.02550322
000010 e6 ee a1 3c 77 4c 27 bd b2 73 63 3c 8a e4 c4 bc
       0.019767236 -0.040844407 0.013882564 -0.024034757
000020 2f 58 09 3d 40 30 f9 ba 2e fb c7 bc cd 74 9f bc
       0.033531364 -0.0019011572 -0.024411764 -0.019464875
000030 55 98 ab 3c c3 f8 1f 3e df 6e 0a 3c 3b 25 d7 3b
       0.020946661 0.15622239 0.008449285 0.0065657175
000040 b4 2b 8c bc 33 3c fd bc 9b 4f 4b bb a3 53 97 3d
       -0.017110683 -0.030912494 -0.003102279 0.07388999
000050 46 84 0b 3d 39 98 a7 3c 04 c9 33 3d ee f9 a3 3c
       0.034061693 0.020458328 0.043892875 0.020016637
000060 d2 90 2d bd ac 56 1a bd b0 c6 cd ba 55 82 bf 3c
       -0.04237444 -0.037680313 -0.0015699472 0.023377577
000070 0a 1f 02 3c 6b 39 06 3d 35 d0 84 bb 87 30 79 3d
       0.007941971 0.0327696 -0.0040531405 0.060837295
000080 db e3 1a bc 33 9b 33 bd 42 53 a3 bc 33 53 3b 3d
       -0.009453739 -0.04384918 -0.019937161 0.04573364
000090 a1 5a 44 bd 1f 15 3c 3d 14 fb 14 3d 76 31 00 bd
       -0.047937993 0.04591858 0.03637226 -0.03129717
0000a0 f3 c7 54 3d b6 87 ff bc c1 13 a3 bb 8f dc 07 3c
       0.0519485 -0.031192642 -0.00497672 0.008292331
0000b0 59 9e d5 3c a2 42 30 bd cb 1a 01 bd 1a d0 0d 3d
       0.026076483 -0.043032296 -0.031519692 0.03462229
0000c0 03 1d ec bc b1 c5 b6 bc 92 ef 98 bc 7c 64 2c 3d
       -0.028822428 -0.022311063 -0.018668924 0.042088017
0000d0 c0 27 22 3d 5f 2d 84 3c 37 61 fe bb 85 68 7d 3c
       0.03958869 0.016134916 -0.0077630538 0.015466814
0000e0 91 78 0e 3d 8e b0 0a bc 2e 0d 98 3c ed 72 a9 bb
       0.03478295 -0.0084649455 0.018560972 -0.005171171
0000f0 f2 57 22 bd cf 33 29 3b 94 e6 8f 3c b3 51 8d 3c
       -0.039634652 0.0025818234 0.017566003 0.017250871
000100 8a 93 0a bc e7 fe 35 3d 3c 63 92 bc 70 07 33 bc
       -0.008458028 0.044432547 -0.017869584 -0.010927066
000110 02 e1 ba bb 06 38 b9 bc 1f 5c a1 bc 21 da 21 bd
       -0.0057030926 -0.022609722 -0.019697247 -0.039514665
000120 68 55 ea bc f8 a7 65 3c 19 28 bd 3a 0c 46 54 bc
       -0.028605178 0.014017098 0.0014431506 -0.012956154
000130 86 1f 83 3c fd d1 5f bb c8 d3 a8 3d d5 01 ab 3c
       0.016006242 -0.0034152262 0.08243519 0.020874897
000140 07 0e 28 3d 59 68 16 3c 88 51 00 3d ca 56 d4 3c
       0.041029003 0.009180152 0.031327754 0.02592029
000150 ea 8b a1 3c b7 6d 25 3c 17 1b 3e 3c 83 83 b9 bb
       0.019720037 0.010096959 0.011603138 -0.0056614294
000160 9a 34 f0 3c 62 3e 3e 3d fb d0 46 3d 6e cc 3a bc
       0.029321957 0.04644621 0.048539143 -0.011401279
000170 1a 63 17 3c a9 38 37 bd 22 d1 bd bc 81 2a ee 3c
       0.009239936 -0.04473177 -0.023171011 0.029073002
000180 cb c4 75 3b 8e 76 b3 3b eb 4e cc ba 5c 4f d7 bc
       0.003750133 0.0054767793 -0.0015587484 -0.026282959
000190 cf f5 fc 3b 7e 21 cc 3c f2 51 b2 3b 5c d6 83 39
       0.0077197324 0.024918314 0.0054418975 0.00025145977
0001a0 84 b2 cd 3c 87 7f 30 3d 8b 5e b2 bc 5a 58 9f 3a
       0.025109537 0.04309037 -0.021773597 0.0012157068
0001b0 72 1b 69 3d 18 1d e4 3c 4b 8c d4 bc 8c 58 44 3d
       0.05691094 0.027845904 -0.025945803 0.047936007
0001c0 38 86 30 3c 3d a0 70 3c 4f 7d 6a bc 47 99 0c bd
       0.010774188 0.014686641 -0.014312102 -0.034325864
0001d0 5e f0 03 3d 84 eb e7 3b b6 94 8b bc f6 56 d7 3b
       0.032211654 0.007077636 -0.017038684 0.006571646
0001e0 b4 b5 f9 bc 31 c5 31 3d bb 62 0d 3d 7c a4 41 3c
       -0.03048215 0.043400947 0.034517985 0.011819001
0001f0 f2 42 e8 bb 6b 8c 70 bd 39 2d e2 bc 87 f9 c6 3b
       -0.0070880586 -0.058727663 -0.027609454 0.0060722264
000200 d5 e8 5d 3b 45 6b 20 3d d6 b7 c4 3c c5 7d f3 bb
       0.0033860703 0.0391648 0.024013441 -0.0074307644
000210 9f 2a 01 bd 44 5b 1a bd 54 7d 90 bc 37 e3 ed bc
       -0.031534787 -0.037684694 -0.017637886 -0.029039009
000220 43 9a 09 bd e9 29 1e 3d 26 e5 cd 3c 0e 34 80 bc
       -0.03359438 0.038614187 0.02513368 -0.015649822
000230 89 ab 09 3d 8b 84 b2 bb 96 66 b7 3c 5d b5 a7 bb
       0.033610854 -0.0054479293 0.022387784 -0.0051180557
000240 d8 27 de 3c bd e3 ce 3c 56 db fe 3c 13 be cc 3c
       0.027118608 0.025255078 0.031110447 0.024992978
000250 0a c2 a8 3c 20 31 9f bc 21 16 9a 3c ff 48 c5 3c
       0.020600338 -0.019432604 0.01880938 0.024082659
000260 44 d1 a7 bc 2e 11 96 bc 94 ba 65 bc ae 89 3e 3d
       -0.020485528 -0.018318739 -0.0140215345 0.04651802
000270 44 36 1a 3d 0c a4 1f bd bb 73 b4 bb f2 83 e8 bb
       0.037649408 -0.038974807 -0.00550696 -0.007095807
000280 b9 f6 b4 bc ae 33 a2 3b 40 d5 4b bc c2 5d 36 bc
       -0.022090303 0.0049500084 -0.0124409795 -0.011130752
000290 03 d5 65 3c da b0 2e 3d 9f 05 31 bd f8 0d 1d 3d
       0.014027837 0.042649128 -0.04321825 0.0383434
0002a0 ec 37 94 bb 13 6c 3c 3c fe fe fe 3a c7 a9 5e bc
       -0.004523268 0.011500376 0.0019454656 -0.013590283
0002b0 e6 9c 0d 3d e8 43 d0 bc ae ac d4 3c 91 e3 bc bb
       0.034573458 -0.025423005 0.025961246 -0.0057644327
0002c0 1c 75 21 bd e3 94 a5 3c 78 9d d6 3c e7 f0 fa bc
       -0.039418325 0.020212596 0.026198134 -0.03063245
0002d0 28 58 db 3c 22 9a 26 3d 84 ab a8 3c e1 f0 73 3b
       0.026775435 0.040674336 0.020589598 0.0037222432
0002e0 ee 06 5f bc 25 cb 95 bb e4 4b d4 3c 51 bb 59 3c
       -0.013612492 -0.004571336 0.025915094 0.013289289
0002f0 98 ce 75 3b 0b 02 cd bb 7b 46 3a bc 6f fa db bb
       0.0037507173 -0.006256347 -0.011369343 -0.0067132036
000300 64 84 f4 3c 69 5a 85 bc 25 f7 b2 bc 91 ea 65 3d
       0.029848285 -0.016278462 -0.021846363 0.056131903
000310 c5 87 0e bd ec 34 03 3c 92 1d 00 3d dc c6 6b bb
       -0.03479745 0.008008223 0.0312782 -0.0035976684
000320 a5 53 eb 3c 57 ff 84 bc 93 de b9 bc 58 83 ab bc
       0.028726408 -0.016235037 -0.02268914 -0.020936653
000330 42 03 42 bd 59 d5 33 bd 7c 9f d6 3c 68 18 ee bc
       -0.04736639 -0.043904636 0.026199095 -0.029064372
000340 93 7b ce bc 4d 6c a8 bc 25 06 cd 3c a6 6a 06 3c
       -0.02520541 -0.020559454 0.025027344 0.008204138
000350 99 01 f9 bc c0 11 17 bd 93 3f 05 bd 14 38 b8 bb
       -0.03039627 -0.036882162 -0.032531332 -0.0056219194
000360 fe 1a 65 3c 41 f7 7c 3c 45 5e 5e bc c8 71 24 3d
       0.013983486 0.015439809 -0.01357228 0.040147573
000370 53 90 99 bc cd 01 5b bd 02 fd 09 bb 7b cf fd 3c
       -0.018745577 -0.053468514 -0.0021055345 0.030982723
000380 85 e8 ed bc 78 19 f2 3c fd d2 30 bb 7f b3 88 3c
       -0.029041538 0.02955316 -0.0026981228 0.016687153
000390 99 18 21 3b 41 87 1a 3d d8 41 0c 3d 4f 2a a4 bc
       0.0024581312 0.037726644 0.03424248 -0.020039706
0003a0 a3 cd 86 3c 31 4d 10 bd 26 05 7b bb 77 ea 14 3d
       0.016455477 -0.035229865 -0.003830263 0.036356416
0003b0 c7 92 64 3c 7e 46 21 bb a4 1c 51 bc 1d 13 1b 3d
       0.01395101 -0.0024608667 -0.012763176 0.037860025
0003c0 52 fa a0 bc 93 52 65 bb 97 aa 9c 3c 8d c1 bd 3c
       -0.019650612 -0.0034991845 0.019124312 0.023163581
0003d0 e6 e5 a7 bb ee c1 90 bc 2a 40 d3 bc c5 ff 31 bd
       -0.0051238416 -0.017670598 -0.025787432 -0.04345681
0003e0 4f de 02 bd f1 bb 31 bd 9d 8f 8f bb 38 3c ce 3c
       -0.03195029 -0.043392126 -0.0043811337 0.025175199
0003f0 70 fd ef 3c e9 dc 3d bd c4 78 a0 3c 07 d8 fd bc
       0.029295653 -0.046353254 0.019588836 -0.030986799

layer.2.weight f4 [128, 256]
000000 4e 7a c1 3c b0 ea af b9 09 ed b8 bc bd 88 67 3c
       0.02361789 -0.00033553457 -0.022573965 0.014131722
000010 97 12 98 3d 81 bd 2e bd 2d 67 ad 3d 4b 33 c2 bc
       0.07425421 -0.042661194 0.08466945 -0.023706099
000020 79 de 65 3d 50 53 cf 3d d9 a9 c1 bd f3 bb 83 3d
       0.05612037 0.101233125 -0.09456224 0.06432333
000030 1c 3b 3f bb ae 9c c9 3d 6a 8a 47 3d 0e cc 5a 3d
       -0.002917952 0.098443374 0.048715986 0.053417258
000040 da 2e 3b 3d 49 ad db bc 91 76 c0 bc c6 31 c7 3d
       0.045698978 -0.026816027 -0.023494037 0.097262904
000050 7a 4b b8 bd ec 23 fb bb d9 24 a9 3c c8 51 b3 3d
       -0.08998771 -0.0076641943 0.020647453 0.08755833
000060 d0 6e f8 3c 95 04 e7 bc f8 01 b0 bc 78 f8 8f bb
       0.030326277 -0.028200427 -0.021485314 -0.0043936335
000070 30 45 a9 bd d2 31 6e bd 52 e4 33 bb fa 74 a0 bc
       -0.082651496 -0.05815298 -0.0027449322 -0.019587029
000080 ec eb 1a bd 3c 59 d2 bd ef 29 88 3d ae 44 cd 3d
       -0.03782265 -0.10270926 0.06648623 0.10022865
000090 c9 dd 78 3d 0a 85 13 3d 1e eb cb bd 68 6d 81 bd
       0.060758386 0.036015548 -0.099569544 -0.06319696
0000a0 6c 14 9e bc bc b4 bd bd 76 ac 4b 3d 08 de 4b bc
       -0.019296847 -0.09262988 0.04972502 -0.012443073
0000b0 82 f0 1b 3d 72 fe ec 3d 22 bf 16 3d 2f 51 4c 3d
       0.038071163 0.11571969 0.036803372 0.04988211
0000c0 9f 9a 20 bd b4 b7 07 3d 5f 78 12 bd c5 8b 53 bd
       -0.03920996 0.033134177 -0.035759326 -0.051646966
0000d0 be 34 08 3e e2 42 c3 3b d5 66 2b 3e 8f 6c a2 3d
       0.1330137 0.005958901 0.16738446 0.07930862
0000e0 23 1b d1 bc d3 4b e3 3c c7 0f 4c 3d f6 17 a5 3c
       -0.025525635 0.027746117 0.049819734 0.020153027
0000f0 4f 71 43 bd 2e 44 7a 3d 5c 30 7f 3c 91 25 8a bb
       -0.04771548 0.061100177 0.015575495 -0.004215904
000100 d9 e8 3c bd 8a 26 22 be 09 7f 91 3c 12 14 78 3a
       -0.0461205 -0.15835014 0.01776077 0.000946344
000110 7f 83 2a bc 8c 0e 46 3d ac 71 9f 3d 78 1f 01 bd
       -0.010407328 0.048353717 0.07785353 -0.03152415
000120 6b 45 1e 3d b9 00 66 bd 42 05 2c 3d 62 0f 6b bc
       0.03864042 -0.056153033 0.0419972 -0.014346929
000130 98 62 fd bc 66 b0 6e 3d 43 03 4f bb 0c f7 e6 3d
       -0.030930802 0.058273695 -0.0031587637 0.11277589
000140 66 e9 9f 3d 90 84 df bc 4e f6 6e bd 80 9e e7 3c
       0.07808189 -0.02728489 -0.058340363 0.02827382
000150 75 19 6a 3c ce f7 57 3d a6 51 9f bd 21 cb e7 3d
       0.014288296 0.05272656 -0.07779245 0.11318041
000160 1b 09 50 bd 01 d2 55 bd f9 36 f4 bc d4 79 ea 3d
       -0.050789934 -0.05220223 -0.02981137 0.11449018
000170 e6 1a bd 3c 5b 0a 55 bc 37 55 b3 3d 8f b8 73 bc
       0.023084115 -0.013002957 0.08756488 -0.014875545
000180 9f 86 1b bd 81 d0 ad 3d 31 4e 9a bd f2 dd 12 3d
       -0.03797018 0.084870346 -0.07534445 0.035856195
000190 11 af aa 3d 86 ff f1 bb 05 5d ea bd 62 1a 6d 3d
       0.083341725 -0.007385197 -0.11443523 0.05788649
0001a0 68 8e 1a bc 12 3d 8a 3c e8 74 e0 bd 52 fb 78 bc
       -0.009433366 0.016874824 -0.10959798 -0.015196638
0001b0 d7 ff bb bd af 32 2b bd 26 6c 0e 3e 86 e6 8d bd
       -0.09179657 -0.041796383 0.13908443 -0.069287345
0001c0 27 b2 87 3c 23 34 df bb 60 5f 36 3d e7 44 b2 bc
       0.016564442 -0.006811635 0.04452455 -0.02176137
0001d0 24 29 a3 bc d5 27 74 bd bd dd 82 3d 95 f9 5e 3d
       -0.019917078 -0.0596083 0.063899495 0.05443724
0001e0 4c dd 62 bc df 7e 9b 3d be 8a 40 3d 92 0b 51 3d
       -0.013846707 0.07592558 0.047007315 0.051036425
0001f0 34 00 90 bc 15 f2 bc 3c 8e b5 8a bc eb 74 12 bd
       -0.017578222 0.023064652 -0.016932275 -0.035756033
000200 e1 b7 8a bc 0e d8 6f bd cc fb 98 3d 58 61 59 3c
       -0.016933383 -0.058555655 0.074699014 0.013267837
000210 24 23 56 3d 35 31 d8 bc b1 e3 b6 3b cc da fe bc
       0.052279606 -0.026390651 0.005581342 -0.03111019
000220 60 20 c1 bc 4b 8a ae 3c d5 d8 ac bd 11 e0 9b 3a
       -0.023575008 0.021306178 -0.08439795 0.0011892339
000230 2f 31 2f 3c d7 80 39 bd 22 5c 8f bd 45 22 b2 3d
       0.010692879 -0.045288887 -0.06999995 0.08697943
000240 67 62 91 3d 3a 5e 47 bd 66 1a cf 3c b4 ae c7 bc
       0.07098847 -0.048673846 0.025281142 -0.024375297
000250 1c be ea bc 08 04 3d bd 41 f0 8c 3d 06 c5 ca bb
       -0.028655104 -0.046146423 0.06881762 -0.006188038
000260 b9 51 83 3d 2c b3 98 bc 78 c3 8b 3d d6 1c 91 bd
       0.06412072 -0.018640123 0.06824392 -0.07085578
000270 82 1d 8d 3c 0c 20 67 bd 99 c5 bc bd aa 8a 5f 3d
       0.017225984 -0.056427047 -0.09217376 0.0545756
000280 66 4d b7 3c c7 38 d6 3b e1 ce cb bd 7b 8d fc 3d
       0.022375774 0.00653753 -0.099515684 0.12331673
000290 e7 2d 04 3e d5 82 79 3d 25 f8 3b 3c 72 2c 3d 3d
       0.12908135 0.060915787 0.0114727365 0.046184964
0002a0 f2 80 34 3d aa 43 32 3d a3 92 09 3d 33 5e c2 b9
       0.044068284 0.04352156 0.03358711 -0.00037072747
0002b0 26 07 0a 3d 28 e4 2f bd fc 93 f5 bd 44 44 a3 3d
       0.033698224 -0.042942196 -0.119911164 0.07972005
0002c0 9d 34 79 bd 2d 32 71 3d e1 b6 47 3b 29 8d 76 3d
       -0.06084119 0.058885742 0.0030473995 0.060193215
0002d0 2f 19 f6 3d b5 e4 9c 3d bd e5 a4 3d 24 43 e7 bc
       0.12016522 0.0766081 0.080516316 -0.028230257
0002e0 61 a9 d7 bc 4a 38 8d 3d ea 6a 16 3d de 88 6b 3b
       -0.026325883 0.06895502 0.036723055 0.0035939733
0002f0 9f c3 ab 3c e7 1f 88 3d 7b 21 fb ba a5 b7 1a 3d
       0.020967303 0.0664671 -0.0019159758 0.037772793
000300 4f f8 62 3d 6f 27 87 bd 59 ad 1a 3d 9d e3 ae 3d
       0.055412587 -0.06599318 0.037762973 0.085395075
000310 24 96 b9 3d 5b 42 fb 3d 7b d6 83 bc d1 77 ad ba
       0.0906184 0.12268516 -0.016093483 -0.0013234561
000320 96 69 9f bc 5f 70 1f 3d c0 41 be 3c f0 85 d6 bc
       -0.019459527 0.038925525 0.023224711 -0.026186913
000330 d0 07 99 3d f7 97 69 bd 43 75 1f bd ca 82 5b 3d
       0.07472193 -0.05702969 -0.03893019 0.053591527
000340 15 e2 c7 3d 10 57 98 bd 89 65 34 bd 4c ee 04 3d
       0.097599186 -0.07438481 -0.044042144 0.03245382
000350 77 a9 dc bb 29 1e 6c 3d b7 09 2d bc 0d c7 49 3d
       -0.006734069 0.05764595 -0.010561398 0.049262095
000360 96 a4 ec 3c c9 59 77 bd 40 41 dd bc 27 ed 60 bd
       0.028887074 -0.06038836 -0.027008653 -0.054913666
000370 2d 5a f2 3c 97 ea f8 3c 54 ea ef 3d bf ce 9f 3d
       0.029584015 0.030385299 0.117146164 0.078031056
000380 7a b9 55 bc 60 4d c3 3d 65 52 88 bc ab a0 b8 3d
       -0.013044709 0.095362425 -0.016640851 0.0901502
000390 82 39 fc 3c 17 ef 9f 3d 25 4d ea 3c c7 fd 60 3d
       0.03078914 0.07809275 0.028601239 0.05492952
0003a0 4b fc 67 bc 25 ef 5c 3d 5d bc e8 bc cd 9b 8e bc
       -0.014159272 0.053939003 -0.028410131 -0.017408276
0003b0 c6 6f 9e bd 7a 3c c4 bb 0e 90 d5 bd 60 78 1d bd
       -0.07736163 -0.0059886547 -0.10427867 -0.038444877
0003c0 ff d2 e3 bc 95 27 57 3d a1 86 a4 3d 96 c8 21 3d
       -0.027810572 0.052527983 0.08033491 0.039497934
0003d0 21 ed c7 3d f4 e5 40 3d 45 02 55 3c c8 ad 1d bd
       0.097620256 0.0470943 0.013001029 -0.03849581
0003e0 32 0e cb 3c d9 cf 93 bd 13 4b 04 be f4 01 db 3d
       0.024787042 -0.07217378 -0.12919264 0.10693732
0003f0 02 b0 c0 bc 55 54 c5 bb 67 3c f2 bc ce c0 17 bd
       -0.023521427 -0.006022016 -0.029569818 -0.037049107

layer.2.bias f4 [128]
000000 6a b7 cc 3c c7 fa 01 3d 1e 67 10 3c 2b db 1f 3d
       0.024989802 0.0317333 0.008813648 0.039027374
000010 28 43 22 3d 4b 76 65 bc 3f 38 87 bd ef 53 53 bd
       0.039614826 -0.014005254 -0.06602525 -0.051593717
000020 39 eb 38 bd 05 41 16 3d aa 53 8b 3d 39 25 c1 3c
       -0.0451462 0.0366831 0.06803067 0.02357732
000030 a1 26 2e 3d 15 22 8c bd 7b 16 c9 3c d3 b9 e0 3c
       0.04251731 -0.06842438 0.024546852 0.027432358
000040 25 9c 24 bb 50 95 a1 3a 78 36 90 3d 51 eb 64 bc
       -0.0025117483 0.0012327824 0.07041639 -0.013972119
000050 98 21 cf ba 87 9f 02 3d 71 1a b6 bc 6b 99 48 bd
       -0.0015802858 0.03189042 -0.022229405 -0.048974436
000060 d1 29 d2 bc 12 08 e4 3c 98 e2 57 3d e4 90 1d bd
       -0.025654705 0.02783588 0.05270633 -0.038468257
000070 d4 29 b3 3b 20 b7 c1 bc 40 5f 4e 3d 95 6c be 3c
       0.005467633 -0.023646891 0.050383806 0.023245135
000080 51 36 e8 bc b8 6c 15 bd 19 34 6c 3d b8 15 a1 3d
       -0.028346213 -0.036480635 0.05766687 0.07865471
000090 64 e9 af 3c 6d c8 14 3d fe 89 b8 3c 45 2c 86 3d
       0.021473594 0.036323953 0.022526737 0.065514125
0000a0 76 ca 3b bb cf 91 1a 3d be f9 73 bc 39 d8 34 bc
       -0.0028654612 0.03773671 -0.014891086 -0.01103788
0000b0 1f 28 3b bd 6a a6 29 3c 97 af 09 3d 17 da 73 3d
       -0.04569256 0.010354618 0.03361472 0.05953416
0000c0 ab 0d 10 bd fb a4 45 bd 19 27 05 bd 92 c8 ce 3c
       -0.035169285 -0.04825304 -0.03250799 0.025242124
0000d0 2b fc 20 3d 21 58 51 bd 59 1b 3e bd 3d 03 c9 bc
       0.039302986 -0.051109437 -0.0464128 -0.024537677
0000e0 b3 bb e7 3c 48 ba c1 3c bb 7c a1 3d 23 ba 98 3d
       0.028287744 0.023648396 0.078851186 0.07457378
0000f0 05 8f a0 3b 94 bc 68 3d 4a a6 5b bc ad fd 4b bd
       0.0048998618 0.056820467 -0.013406346 -0.04980247
000100 1a 82 88 b9 6c d6 c7 3a a7 0e 97 bb 54 12 7e 3d
       -0.00026036875 0.0015246398 -0.004609901 0.062029198
000110 de 1d 96 bc b7 f8 93 bc 53 7a 3b 3c 3f fb 51 bc
       -0.018324789 -0.018062932 0.011442739 -0.012816249
000120 8a 88 1c 3d db bc ae bc 05 28 f6 3c 95 30 1e 3d
       0.03821615 -0.021330288 0.03004838 0.03862055
000130 b7 06 30 3d c2 a1 72 bc 4b 3a 6b 3d 20 94 e1 bc
       0.042975154 -0.014809074 0.05742864 -0.027536452
000140 aa ee 4c 3d e8 10 14 bd e3 95 7a ba 8f e8 f3 ba
       0.050032295 -0.036148936 -0.0009559078 -0.0018608737
000150 97 1e 25 3d 3d 46 ca 3b 9a 6d 4f 3d 7e 07 8a bc
       0.040312376 0.006172924 0.050641634 -0.016849276
000160 72 34 c5 bc 0e e3 68 3d bd 1b 90 3d 9c 62 ca 3c
       -0.02407286 0.05685716 0.07036541 0.024705224
000170 82 e0 db bb fd 6f 32 bd ea 22 0a bd d2 fc 05 3d
       -0.006710113 -0.04356383 -0.033724703 0.03271181
000180 9f ed 48 bd 88 6a 93 bc 41 1a 87 3d 90 9e 61 bd
       -0.049054738 -0.017995134 0.065968044 -0.055082858
000190 e7 44 8e 3d 4f 38 8d 3d 39 17 0e 3c ec d1 d5 3c
       0.06946736 0.06895506 0.008672529 0.026101075
0001a0 f6 02 1d bc 60 52 39 3d 18 b0 c2 bc e3 56 3f bd
       -0.0095832255 0.045244575 -0.023765609 -0.04671372
0001b0 eb f3 0f 3c 4c 1c 01 3d 9e 66 6f 3d 11 01 fc ba
       0.008786182 0.031521127 0.058447473 -0.0019226392
0001c0 7a 85 c6 3c 30 fe 9c 3c 08 3f 11 3c 5d 13 0b 3d
       0.024233568 0.019164175 0.0088651255 0.033954013
0001d0 4a 1e a5 3d 29 5d 9b 3d 3d 56 4b 3d 28 bb 94 3d
       0.08062418 0.07586128 0.04964279 0.0726226
0001e0 ce 3c 73 3c 33 e3 57 3d 2e ba 10 bd 0d 5a 0e bd
       0.01484604 0.05270691 -0.035333805 -0.034753848
0001f0 c9 53 fa bc a9 cc 18 3d 2a bd 06 bc e0 ac 21 bd
       -0.03055753 0.037304554 -0.008223811 -0.039471507

layer.4.weight f4 [10, 128]
000000 38 d8 b6 bd 7f 56 be bd b5 90 92 3d ae ae 06 3d
       -0.08927959 -0.092938416 0.07156507 0.03288143
000010 91 4b 19 bd 80 19 01 3d 4a d2 f2 3d 49 46 00 bc
       -0.03742558 0.03151846 0.11856516 -0.007829257
000020 ba e8 6d 3c 29 fb 2d bd b6 8a 8c bc d7 7a e0 bd
       0.014520818 -0.042475853 -0.017155986 -0.1096093
000030 35 d8 3c 3b ef a0 2a bd a6 f7 c4 bd 8f 9a 7f bd
       0.0028815393 -0.041657384 -0.09617548 -0.062403258
000040 a1 e1 dc 3d 77 79 8d 3d 4e 43 9a bd 7c aa ac 3d
       0.10785223 0.06907933 -0.075323686 0.08430955
000050 2f b8 91 3d 45 ea 01 3d dd ee 13 bc 99 96 ae 3c
       0.07115208 0.031717557 -0.009029117 0.021312045
000060 4e 81 ce bc 9e fb 1a 3d 84 4a 6d bd 33 29 c0 bc
       -0.025208142 0.037837617 -0.05793239 -0.023457145
000070 c0 89 a2 3d 78 b0 0f bd 87 d9 0f bd 6a 66 bc bd
       0.0793643 -0.035080403 -0.03511956 -0.091992214
000080 27 77 f1 bd 9e 6b 0e be b1 e6 36 bd 43 fd e6 bd
       -0.11790305 -0.1390824 -0.0446536 -0.112787746
000090 3f a3 05 3e ee 9a a2 bd 88 bd 29 3d b1 0c ce bd
       0.13050555 -0.07939707 0.041440517 -0.100610144
0000a0 82 94 f5 3d e1 4b 82 bc 10 02 06 bd 0a d7 92 bc
       0.11991216 -0.015905323 -0.03271681 -0.017924804
0000b0 e1 59 16 bc c3 ac c9 bd 20 80 9a 3d e8 3d e1 3d
       -0.009176702 -0.09847405 0.07543969 0.10998136
0000c0 f7 2f 0b be ec f8 74 3d 0b c0 56 3d e1 b9 f4 bd
       -0.13592516 0.059807703 0.05242924 -0.11949516
0000d0 bc 3e 99 3c 7e 21 12 be 50 f5 46 3d 30 16 d9 bd
       0.018706672 -0.14270589 0.048573792 -0.10599935
0000e0 99 1e fb bd a4 17 2f be 17 71 8d 3d d2 b7 8a bd
       -0.122616954 -0.17098862 0.06906336 -0.06773342
0000f0 75 01 9b be a3 a1 b7 3d b8 60 ca 3d 09 e7 97 3c
       -0.3027455 0.08966377 0.09881729 0.018542783
000100 df a1 97 3d 6e 98 de bd 34 bc b4 3c 80 a8 74 3c
       0.07403921 -0.108689174 0.022062398 0.014932752
000110 67 35 22 be fd 23 f8 bd bd 51 20 be 24 e9 69 3c
       -0.15840684 -0.12116239 -0.1565618 0.014276776
000120 75 1a be 3d eb 58 ce 3c db 5e f8 3d 19 c7 01 3c
       0.0928239 0.025188884 0.12127467 0.007921004
000130 ab 26 99 bd 93 af d9 bb 2b 1f d1 3d 22 9f 5d bd
       -0.074780785 -0.0066432445 0.10211023 -0.05410684
000140 2f 5d 9c bd 8c cd f2 3d 98 2d c0 3d af a0 ab 3d
       -0.07634961 0.11855611 0.09383696 0.08380257
000150 37 db 22 bd 12 7d b9 bd 0b 02 d1 3d 0b 00 01 be
       -0.03975984 -0.090570584 0.10205468 -0.12597673
000160 26 9d 04 be 02 73 a1 bd 39 64 1f 3d 88 da b4 ba
       -0.12950572 -0.07883264 0.03891394 -0.0013798038
000170 d7 38 7d 3d b5 6b 8e bd 66 76 4f bb 1e fd 2c 3d
       0.061821785 -0.06954137 -0.0031656264 0.04223358
000180 84 85 d3 bc 05 9a e1 bc c5 96 b6 3d 1c 04 39 bd
       -0.025820501 -0.027539263 0.08915476 -0.045169935
000190 c2 33 b8 bd 75 b2 96 3c 1c 85 52 3d 58 6c 99 3d
       -0.08994247 0.018395642 0.051396474 0.07491368
0001a0 4d 34 52 3d b4 44 43 bd ce 00 88 bd 35 47 14 be
       0.05131941 -0.047672942 -0.066407785 -0.14480288
0001b0 47 82 64 3d 7b c3 2d bd 08 b4 1a bd bf 81 f5 3c
       0.055788305 -0.042422753 -0.037769347 0.029969094
0001c0 fd 3b 09 3e d9 b6 0d be fd 62 f1 3c ea 80 73 3d
       0.1340179 -0.13839282 0.029466147 0.059449114
0001d0 ea 83 d5 bd 97 d4 82 3d ff 62 fa bd 6f f0 98 bd
       -0.10425551 0.063882045 -0.12225913 -0.07467734
0001e0 47 32 96 3d c0 1b bb bd 77 58 16 bd a3 c9 3c 3d
       0.073338084 -0.09136152 -0.03670546 0.046090733
0001f0 ec 75 28 3d 55 e0 c6 3d e1 55 c6 3d ac c1 21 bd
       0.041128084 0.09710757 0.09684349 -0.03949134
000200 6f f3 d0 3d 56 1b 05 3e 81 59 ae bd cd 44 6a 3c
       0.10202681 0.12998709 -0.08513165 0.01429863
000210 4c 18 90 bc ac 5e cf bd f4 f7 1b be 14 6e 43 3d
       -0.01758971 -0.10125479 -0.15231305 0.0477124
000220 df 34 95 3d e7 85 87 bd 46 c4 3c 3d 29 79 35 3d
       0.07285475 -0.06617337 0.04608562 0.044305
000230 9a bb 76 bd 31 54 c9 3b 46 80 fa bc 57 d7 3e bd
       -0.060237505 0.0061440696 -0.030578744 -0.046592083
000240 1a 34 02 be e2 ca 07 bc 7d c6 a3 bc c1 2c 5e bd
       -0.12715188 -0.008288117 -0.019992108 -0.0542419
000250 01 2f a7 3c 1b 60 48 be 49 9a dd 3d b7 ac b0 bd
       0.020408155 -0.19567911 0.10820443 -0.08626693
000260 33 3b 1c bc b8 ea 99 bc 7d 31 00 be 09 25 8c 3d
       -0.009535599 -0.01878868 -0.12518878 0.068430014
000270 4b fd a6 3c 9e 68 54 3c 50 b5 a6 bd 84 52 17 be
       0.020384451 0.012964396 -0.08140051 -0.14777571
000280 34 89 4c bc 44 dd 86 bd dc b7 32 be 1f 7c df 3c
       -0.012483884 -0.06585172 -0.1745295 0.027280865
000290 60 3c a7 bd 54 74 f9 bd 6b 26 0a bc a2 14 d8 bd
       -0.081658125 -0.12180391 -0.008432011 -0.105508104
0002a0 8b 3c 53 3d 0e 93 8c bd 72 19 01 3e 42 99 85 3d
       0.05157141 -0.06863986 0.12607363 0.06523372
0002b0 48 08 f5 bd e3 5f 0c be 87 b8 ec bc ca e6 0f bc
       -0.1196447 -0.13708453 -0.028896583 -0.008783052
0002c0 5b 54 ac 3d 96 c1 7c bd 12 4b 82 3d 0d 01 d8 3d
       0.08414527 -0.061708055 0.06361975 0.105470754
0002d0 ee 96 d6 38 b3 92 30 bd a7 77 cc 3c ba 2f 77 3d
       0.00010232428 -0.043108653 0.024959398 0.06034825
0002e0 3a e2 07 3e 73 9d 96 3c 40 30 8f 3c b0 38 da bd
       0.13269892 0.018385625 0.017479062 -0.106553435
0002f0 eb 14 ac 3d f4 8e ef 3d 08 bf f7 bd 29 91 b5 bd
       0.08402427 0.11697188 -0.12096983 -0.08865578
000300 54 42 96 3c 2b ab d9 3b f5 72 33 bd 5c 79 e5 bc
       0.018342175 0.0066427193 -0.043810803 -0.02801197
000310 9d ee 42 3d 5a cd 21 bc 50 83 01 3e 1c c0 dd 3c
       0.04759084 -0.00987562 0.12647748 0.027069144
000320 00 d2 5a bd 54 a2 16 3d 18 3a 86 bc 8e c6 99 3d
       -0.053422928 0.036775902 -0.016385123 0.075085744
000330 d1 16 27 3c be b3 9f bd 80 22 00 be 13 e5 bc bc
       0.010198311 -0.07797955 -0.1251316 -0.02305845
000340 eb a1 08 bd d1 68 11 be f4 0e e7 bc 8a f0 05 be
       -0.033357542 -0.1420014 -0.028205372 -0.1308004
000350 59 36 e3 bd f9 29 86 3d 5c 88 9c bd 6d 69 cd bd
       -0.1109435 0.065509744 -0.07643196 -0.10029874
000360 1a 55 7c 3d d8 e7 16 bd 8c b1 b8 3c e3 25 68 bc
       0.061604597 -0.036842197 0.022545598 -0.014169189
000370 e0 c5 8b bd 67 82 9b bd f7 60 2c 3c 6b 2d 71 bd
       -0.06824851 -0.07593232 0.010521165 -0.058881205
000380 23 1b d8 bc 37 c4 37 bd 5e 75 d8 3d 9e 5e 68 bd
       -0.026380127 -0.04486486 0.10569261 -0.05673086
000390 1d 0a d6 3d 97 b9 c4 bd ad 2b b1 3c 1f 0c b3 b9
       0.10451148 -0.09605711 0.021627272 -0.0003415057
0003a0 67 30 3d 3d 73 bd 56 3d c1 2a 44 3d b0 42 24 3d
       0.04618874 0.052426767 0.047892336 0.04010266
0003b0 7a 48 c1 bd 5e fc ae 3d 4a e5 e8 bc d6 93 ec 3d
       -0.09437652 0.08544229 -0.028429646 0.11551635
0003c0 54 2a bc 3d 91 52 0f bd ae 6c 8d bd fa b3 5c 3d
       0.09187761 -0.03499085 -0.06905495 0.053882577
0003d0 1f 43 37 3d 25 ad 4e 3d 3b d8 d9 3d 29 df fd bd
       0.044741746 0.050458092 0.10636946 -0.1239608
0003e0 db b1 14 3d 0a a2 f9 bd f8 dd 0c be 20 34 a5 3d
       0.03630243 -0.121891096 -0.1375655 0.08066583
0003f0 a5 06 58 bd 77 43 fc 3c 6b be 1b bd 03 c6 14 be
       -0.05274071 0.030793888 -0.038023394 -0.1452866

layer.4.bias f4 [10]
000000 34 63 4e bc 93 81 99 3c a7 8e ba bd 37 dd a4 3d
       -0.012596894 0.018738544 -0.0910924 0.08050006
000010 d6 8c b0 3d 4d dd 59 3d f9 05 8b 3d 41 09 a3 3d
       0.08620612 0.053189564 0.067882486 0.079607494
000020 ad db e3 3c 8a 78 23 3d
       0.02781471 0.039909877
