hw10/models/baseline.pth (torch_old, 213293 bytes, 12 tensors)

weight f4 [12, 3, 4, 4]
-0.09845647 -0.015240191 -0.09439167 -0.09569401 -0.052803095 0.31254822 0.11656275 0.11932849
0.105947465 0.28386343 -0.2118568 -0.053534914 -0.038212713 0.17172758 -0.018162185 -0.029658284
0.123402454 -0.09910736 -0.033686835 0.07987343 -0.092210285 0.04898359 -0.1038115 0.025952486
-0.09775703 -0.1042931 -0.46656543 -0.1342032 0.051810704 -0.011786871 -0.06448049 0.16700093
-0.044256546 -0.06427298 0.016590662 -0.019472515 0.024177948 0.2023091 0.14533256 0.10112556
-0.079766884 -0.0029736012 -0.14371714 0.0050432337 -0.07123506 0.0068033943 -0.0075310552 0.05661702
-0.039172076 0.04245406 -0.07997704 -0.024522565 0.04046889 0.3494464 0.01310163 -0.047010783
-0.07740125 0.031661786 -0.1854176 -0.11247711 -0.06545721 -0.034526896 -0.07976976 0.04131242
-0.027266026 0.17285608 0.0080716135 -0.073273376 0.1922255 0.6567082 0.26822948 0.0105069075
0.02805017 0.3128418 0.08198442 0.03200545 -0.073199235 0.009225451 0.028530631 0.025195861
-0.004419754 0.00090794655 -0.07563377 0.0061106198 -0.020119656 0.32759517 0.038974527 -0.025444387
-0.13534601 0.02903939 -0.16386159 -0.04496944 0.0153114395 -0.032443717 -0.08364996 -0.0214541
0.05740105 -0.07450706 0.029103905 -0.024222711 0.039076474 -0.21264248 0.26393765 0.032336902
-0.06495856 -0.12271864 -0.17402504 -0.16960768 -0.004209409 -0.004807917 -0.046064727 0.07359782
-0.025313161 -0.15005392 -0.040533684 -0.08935217 -0.049213566 -0.2699303 0.3073121 -0.02587612
0.096226946 0.08215944 0.040410742 0.008923583 -0.053356547 0.060525127 0.025220614 0.11400892
0.07386001 0.014856696 -0.00240018 -0.08417743 0.046638448 -0.055523966 0.2708926 -0.010743244
0.016609695 0.05158002 -0.03849331 -0.110288344 -0.019046893 0.05141655 -0.12897554 -0.045055445
0.08865883 -0.06860882 0.10904497 0.025090063 -0.0719085 -0.33543843 -0.06659054 0.04348798
0.10371069 -0.07332817 0.15502194 0.11042992 0.053064868 0.03600184 0.089842655 -0.06803758
-0.055790994 -0.15750962 -0.06198582 0.025406819 -0.16026385 -0.36546028 -0.19278176 -0.017223867
-0.07481647 -0.21596834 -0.09440587 -0.04012373 0.017292809 -0.025327532 -0.033059057 -0.0050591496
0.04780176 -0.041531987 0.07745914 0.021088842 -0.029621676 -0.2645331 -0.054399833 -0.00042551756
0.11851781 -0.04925534 0.09941468 0.06215831 0.017288312 0.013352331 0.072308786 0.004596044
0.05608207 0.040786967 -0.091408454 0.060207404 -0.00022501351 -0.16035505 -0.41868427 -0.104120225
0.09936779 0.094591744 0.022742664 0.06205302 0.03981163 0.018380322 -0.01590915 -0.010522926
-0.05033951 0.007750344 0.10641661 -0.018674906 0.03133944 -0.028494611 -0.12130245 0.039036047
-0.029370204 0.08856033 0.13012785 -0.018450392 -0.09587799 -0.027496014 0.10330448 -0.047438227
0.065485045 -0.09734791 0.12886672 -0.029379366 0.083840944 -0.06922049 0.061740648 0.05127786
-0.11023899 -0.08169056 0.15098435 -0.062136743 -0.0010224944 -0.12203873 0.06238163 -0.061477188
0.0024048034 -0.01754569 -0.048904892 -0.034317553 -0.024855863 0.010928012 0.06191068 0.006521303
-0.05810973 -0.054600645 0.1548098 0.08675461 -0.0032655755 -0.03857504 0.009454278 0.014776991
00000000: 8ca3 c9bd feb1 79bc 6b50 c1bd 39fb c3bd
00000010: 0f48 58bd 5206 a03e 73b8 ee3d 7f62 f43d
00000020: fcfa d83d 8c56 913e fdf0 58be 6d47 5bbd
00000030: ef84 1cbd 5bd9 2f3e ddc8 94bc eef5 f2bc
00000040: 6dba fc3d cdf8 cabd 35fb 09bd ae94 a33d
00000050: bfd8 bcbd 04a3 483d 209b d4bd 4f9a d43c
00000060: d634 c8bd 9f97 d5bd aae1 eebe 906c 09be
00000070: 7637 543d b81d 41bc 590e 84bd 4b02 2b3e
00000080: 5a46 35bd 8da1 83bd 24e9 873c d384 9fbc
00000090: d510 c63c 1e2a 4f3e 0fd2 143e eb1a cf3d
000000a0: d25c a3bd c0e0 42bb 962a 13be b641 a53b
000000b0: b0e3 91bd 02ef de3b 12c7 f6bb 40e7 673d
000000c0: e672 20bd 4fe4 2d3d 01cb a3bd 8ce3 c8bc
000000d0: b5c2 253d a3ea b23e 38a8 563c 618e 40bd
000000e0: 8c84 9ebd caaf 013d 1dde 3dbe 665a e6bd
000000f0: 6e0e 86bd 136c 0dbd 545e a3bd 3637 293d
00000100: 005d dfbc 2f01 313e cd3e 043c 5a10 96bd
00000110: c3d6 443e 071e 283f 6055 893e 2a25 2c3c
00000120: 78c9 e53c cd2c a03e 73e7 a73d 2618 033d
00000130: 7be9 95bd 5926 173c 12b9 e93c 8d67 ce3c
00000140: 95d3 90bb 4303 6e3a e1e5 9abd 983b c83b
00000150: fad1 a4bc 8eba a73e c1a3 1f3d bf70 d0bc
00000160: 2598 0abe 04e4 ed3c 55cb 27be e031 38bd
00000170: d5dc 7a3c b4e3 04bd ac50 abbd 82c0 afbc
00000180: 5d1d 6b3d 2897 98bd 506b ee3c b56e c6bc
00000190: a70e 203d f3be 59be d622 873e b373 043d
000001a0: fe08 85bd e953 fbbd 9f33 32be a3ad 2dbe
000001b0: 15ef 89bb bb8b 9dbb 5eae 3cbd 74ba 963d
000001c0: 8c5d cfbc bca7 19be a606 26bd 45fe b6bd
000001d0: 2a94 49bd 4e34 8abe 0358 9d3e 28fa d3bc
000001e0: a212 c53d 3543 a83d bc85 253d 3834 123c
000001f0: 658c 5abd 32e9 773d 769b ce3c 827d e93d
00000200: eb43 973d 8069 733c 574c 1dbb 3765 acbd
00000210: f507 3f3d 196d 63bd 6fb2 8a3e 6e04 30bc
00000220: 0e11 883c 9245 533d 29ab 1dbd dbde e1bd
00000230: 3b08 9cbc 299a 523d 2a12 04be 0f8c 38bd
00000240: c392 b53d c882 8cbd f852 df3d ad89 cd3c
00000250: c344 93bd 96be abbe 9f60 88bd 7420 323d
00000260: 4566 d43d 142d 96bd 12be 1e3e 1529 e23d
00000270: 8c5a 593d aa76 133d 6dff b73d 4957 8bbd
00000280: 1985 64bd 344a 21be d8e4 7dbd f621 d03c
00000290: 351c 24be 9c1d bbbe 9568 45be 1119 8dbc
000002a0: 6139 99bd ce26 5dbe dd57 c1bd c858 24bd
000002b0: a6a9 8d3c af7b cfbc ef68 07bd 39c7 a5bb
000002c0: c7cb 433d 721d 2abd e6a2 9e3d 82c2 ac3c
000002d0: 28a9 f2bc e270 87be 5cd2 5ebd 0018 dfb9
000002e0: 77b9 f23d f8bf 49bd ec99 cb3d b699 7e3d
000002f0: 38a0 8d3c bcc3 5a3c a116 943d 699a 963b
00000300: 50b6 653d 3c10 273d 5b34 bbbd 0a9c 763d
00000310: 9bf1 6bb9 1d34 24be c95d d6be fc3c d5bd
00000320: 5781 cb3d 51b9 c13d d34e ba3c 4f2b 7e3d
00000330: 8511 233d 5492 963c e853 82bc 5a68 2cbc
00000340: cd30 4ebd 99f6 fd3b f4f0 d93d 1efc 98bc
00000350: c95d 003d 886d e9bc 6b6d f8bd 43e4 1f3d
00000360: c899 f0bc 1e5f b53d 3c40 053e 4725 97bc
00000370: ae5b c4bd 523f e1bc 4d91 d33d 964e 42bd
00000380: 061d 863d 575e c7bd a3f5 033e ffac f0bc
00000390: cdb4 ab3d 79c3 8dbd c3e3 7c3d bc08 523d
000003a0: fbc4 e1bd 614d a7bd a49b 1a3e 1983 7ebd
000003b0: 3805 86ba 71ef f9bd e183 7f3d 81cf 7bbd
000003c0: e899 1d3b fbbb 8fbc 7f50 48bd 9090 0cbd
000003d0: 869e cbbc 680b 333c 0e96 7d3d a8b0 d53b
000003e0: 7804 6ebd eda4 5fbd 7686 1e3e 67ac b13d
000003f0: 4403 56bb dc00 1ebd 1ee6 1a3c 311b 723c

bias f4 [12]
0.620085 0.6675499 0.5044415 -0.62860364 0.445266 0.524514 -0.529791 -0.6875114
0.50002927 0.64415187 -0.50242084 -0.91043556
00000000: e4bd 1e3f 8de4 2a3f 1423 013f 2bec 20bf
00000010: e8f9 e33e 8d46 063f 62a0 07bf bf00 30bf
00000020: eb01 003f 23e7 243f a79e 00bf 4e12 69bf

weight f4 [24, 12, 4, 4]
-0.041459408 -0.12074773 0.08986951 -0.046048965 -0.024249844 -0.10573485 0.012555705 0.0065508103
0.052224286 0.0058747563 -0.08045098 -0.09375369 -0.056603957 -0.045000087 0.09533092 -0.106329426
-0.0035117625 0.07725047 -0.044141494 0.03010694 0.10544547 -0.036179274 -0.095284894 0.0012746927
0.012468233 0.07891257 -0.38498297 -0.10417945 0.0113054225 0.025862666 -0.03540079 -0.01670177
0.04215309 0.005227322 0.04592771 -0.055891663 -0.10308738 0.22903322 -0.02527785 0.045010906
0.08806996 -0.048706133 0.3016911 -0.050452128 -0.041238043 0.15043917 -0.021233877 0.0349002
0.015513267 -0.011126976 0.15897019 -0.040701922 -0.113136925 0.40582457 0.49828002 0.08239574
0.043628473 0.10279497 1.0686018 0.16757473 -0.02851219 0.11089108 0.16037822 0.027957443
-0.015857048 -0.01430737 -0.080575734 0.0063158497 -0.08001403 -0.04795261 -0.007980476 -0.043611344
0.04954446 0.09054049 0.1974838 0.060343217 -0.026853707 0.067579195 0.07018036 -0.0036080016
-0.07307588 0.07939805 0.050130934 -0.048172213 -0.09851079 0.012261667 0.01729803 -0.01588169
-0.04318881 0.1214048 0.13562375 0.067260385 -0.028349848 0.031126307 0.013205572 -0.015460266
0.03547526 -0.12957987 -0.052574635 0.041056115 0.13032319 0.07001974 0.13312925 0.047498282
0.045668688 -0.07653047 -0.059378024 -0.04586734 0.027461791 -0.03355298 0.025884502 0.0065733013
-0.030455828 -0.06432635 0.011289699 -0.01284263 0.10544645 -0.19070971 -0.07339244 0.008858678
0.031778347 0.11182241 -0.2617179 -0.03242424 0.05250995 -0.06184225 -0.06034771 -0.009796976
0.049127724 0.0918903 0.072868116 0.026778972 -0.024734467 0.22694752 0.12365655 0.062282626
-0.018971482 -0.08810598 0.048769332 -0.07364954 0.03923265 0.052765053 -0.012719808 -0.022229115
0.01799114 -0.17593195 0.008354225 -0.05531345 -0.05427657 0.10575474 0.025043143 0.13552715
0.06689754 -0.012113667 0.14964138 0.060145773 -0.0384732 0.021258619 -0.034754097 -0.036532864
0.008023 -0.016496023 0.024992203 -0.0067429366 0.17414665 0.0022116718 0.13160644 -0.008410892
0.19249801 0.52161247 0.236244 0.21872771 -0.023978785 0.033966552 0.13372368 0.07305546
-0.22236302 -0.4830164 -0.068175994 -0.24914667 -0.10866644 -0.41405675 0.5957511 -0.45573232
-0.15242219 0.6301791 0.43652424 0.08350433 -0.4154507 -0.51587534 -0.10800175 -0.14031337
0.061021816 0.075533375 0.09914169 0.033790823 0.09055574 0.38784325 0.54972804 0.0551924
0.1633362 0.13824214 0.12820798 0.13661505 -0.023929331 0.021972317 0.024228731 -0.058938082
0.017554944 -0.07001813 -0.030624606 0.007115493 -0.059846085 0.21480732 0.13389313 0.025047936
0.03516071 0.0124396775 -0.08935944 -0.021759648 0.028610699 -0.0056085773 -0.036504496 -0.022704497
-0.07926156 -0.0124616865 -0.2093133 0.016673451 0.024202734 -0.010066183 0.033316985 -0.10884424
0.05296319 0.18614161 -0.16496757 0.13029458 0.028169874 0.06759068 0.014698331 -0.05140674
-0.040527016 0.20341828 0.12374288 -0.005954619 0.21223614 -0.21250369 0.020975519 0.0065308525
0.032060944 0.22584386 0.5390477 0.1292394 -0.029668631 0.13312434 0.13288091 0.02727251
00000000: 57d1 29bd 964a f7bd 810d b83d d79d 3cbd
00000010: 9ca7 c6bc 838b d8bd 72b6 4d3c 2ea8 d63b
00000020: 22e9 553d 0781 c03b 7cc3 a4bd ef01 c0bd
00000030: 8dd9 67bd 0352 38bd db3c c33d 3ec3 d9bd
00000040: 9925 66bb 7f35 9e3d b6cd 34bd d4a2 f63c
00000050: cbf3 d73d b830 14bd ba24 c3bd 9713 a73a
00000060: 8f47 4c3c ea9c a13d 7d1c c5be 095c d5bd
00000070: 613a 393c f1dd d33c 6b00 11bd 26d2 88bc
00000080: b8a8 2c3d f549 ab3b b21e 3c3d a8ee 64bd
00000090: 7a1f d3bd af87 6a3e 7e13 cfbc 5b5d 383d
000000a0: 065e b43d 1580 47bd 4177 9a3e e4a6 4ebd
000000b0: 39e9 28bd ba0c 1a3e abf2 adbc 83f3 0e3d
000000c0: 5c2b 7e3c ec4d 36bc 15c9 223e 0fb7 26bd
000000d0: 55b4 e7bd 3dc8 cf3e 8f1e ff3e 19bf a83d
000000e0: c5b3 323d 2b86 d23d f2c7 883f b698 2b3e
000000f0: 6592 e9bc dd1a e33d 303a 243e 0207 e53c
00000100: a4e6 81bc 7669 6abc e404 a5bd 30f5 ce3b
00000110: 65de a3bd f569 44bd 8bc0 02bc cfa1 32bd
00000120: 22ef 4a3d 4b6d b93d 3139 4a3e 732a 773d
00000130: 4efc dbbc f666 8a3d b8ba 8f3d 3974 6cbb
00000140: cfa8 95bd 729b a23d 1856 4d3d 3a50 45bd
00000150: 06c0 c9bd 29e5 483c 99b4 8d3c 511a 82bc
00000160: c0e6 30bd 14a3 f83d f4e0 0a3e d0bf 893d
00000170: f13d e8bc 99fc fe3c 2f5c 583c 0e4d 7dbc
00000180: 824e 113d 96b0 04be 8058 57bd 752a 283d
00000190: 7173 053e 8266 8f3d 0953 083e 8f8d 423d
000001a0: 170f 3b3d 02bc 9cbd 5f36 73bd 64df 3bbd
000001b0: 8df7 e03c d96e 09bd bc0b d43c d964 d73b
000001c0: 807e f9bc 89bd 83bd 6ef8 383c e569 52bc
000001d0: 4ff4 d73d 6849 43be c74e 96bd fd23 113c
000001e0: 032a 023d 2603 e53d e3ff 85be 48cf 04bd
000001f0: ac14 573d 4d4e 7dbd 292f 77bd 7f83 20bc
00000200: 273a 493d fb30 bc3d e13b 953d 935f db3c
00000210: f09f cabc ee64 683e a53f fd3d 111c 7f3d
00000220: 156a 9bbc e870 b4bd 5ac2 473d 92d5 96bd
00000230: 6ab2 203d 2b20 583d be66 50bc d519 b6bc
00000240: 2862 933c 8127 34be 29e0 083c 5b90 62bd
00000250: 1c51 5ebd f195 d83d 4727 cd3c a1c7 0a3e
00000260: 9401 893d 6778 46bc 973b 193e 6a5b 763d
00000270: 1396 1dbd 8e26 ae3c 505a 0ebd 7ca3 15bd
00000280: e772 033c ab22 87bc 73bc cc3c daf3 dcbb
00000290: 8053 323e b2f1 103b d7c3 063e d7cd 09bc
000002a0: 331e 453e 6588 053f f2e9 713e 28fa 5f3e
000002b0: 286f c4bc 8320 0b3d dcee 083e 1a9e 953d
000002c0: 22b3 63be ed4d f7be db9f 8bbd 4e20 7fbe
000002d0: 838c debd 3fff d3be 2583 183f bf55 e9be
000002e0: 9014 1cbe 6b53 213f 1b80 df3e 5104 ab3d
000002f0: f4b5 d4be 6810 04bf 0630 ddbd 4fae 0fbe
00000300: 03f2 793d 3eb1 9a3d cc0a cb3d 3f68 0a3d
00000310: 4a75 b93d 6493 c63e faba 0c3f 6d11 623d
00000320: 9b41 273e 598f 0d3e f448 033e d1e4 0b3e
00000330: 7207 c4bc 4aff b33c 557b c63c 0f69 71bd
00000340: 63cf 8f3c aa65 8fbd 74e0 fabc 1529 e93b
00000350: 2b21 75bd 73f6 5b3e 481b 093e 5431 cd3c
00000360: ad04 103d cacf 4b3c 1502 b7bd 4a41 b2bc
00000370: fc60 ea3c 28c8 b7bb bd85 15bd c8fe b9bc
00000380: e353 a2bd 1a2c 4cbc 3a56 56be c396 883c
00000390: d044 c63c a2ec 24bc 6477 083d bbe9 debd
000003a0: eeef 583d e89b 3e3e 42ed 28be f16b 053e
000003b0: 82c4 e63c fc6c 8a3d 45d1 703c e08f 52bd
000003c0: a8ff 25bd e24c 503e e86c fd3d f71e c3bb
000003d0: 6e54 593e 919a 59be dad4 ab3c c300 d63b
000003e0: 5652 033d 9d43 673e 08ff 093f 5557 043e
000003f0: a10b f3bc bf51 083e ef11 083e 996a df3c

bias f4 [24]
0.13408673 0.10702783 -0.041339517 0.07443991 0.07471772 0.12270412 -0.077604584 -0.13666204
0.06110676 -0.07059481 -0.0020422342 0.18780114 0.10209676 -0.03643621 0.10324757 -0.023719534
0.0823849 0.085704185 -0.07135506 0.055112876 0.07332459 0.0961695 0.11863177 0.05519563
00000000: 084e 093e 6831 db3d a053 29bd f473 983d
00000010: 9b05 993d 4c4c fb3d 27ef 9ebd 22f1 0bbe
00000020: 154b 7a3d 0394 90bd 01d7 05bb f14e 403e
00000030: 1b18 d13d 233e 15bd 7673 d33d 784f c2bc
00000040: 6ab9 a83d ad85 af3d 9a22 92bd 0abe 613d
00000050: 342b 963d 84f4 c43d 37f5 f23d d014 623d

weight f4 [48, 24, 4, 4]
-0.038673785 0.05169157 0.04009236 -0.018683761 -0.046928626 -0.111667976 0.09813244 0.04887656
0.0627235 -0.071534894 0.010150993 0.055612985 -0.011739274 0.064222 0.01848901 0.025133975
0.0012092637 -0.028294446 -0.03411645 0.0345314 -0.03621368 -0.115889855 -0.1093564 0.026043843
0.060773104 0.04357043 -0.013507064 -0.0073910397 -0.025546137 0.0012701085 0.0036304998 0.0077837706
0.003368633 0.02617626 0.07934297 0.022707414 0.027516041 0.0056700255 0.2835119 -0.020716602
-0.020097904 0.108465604 -0.036535714 0.0029273457 0.014412975 0.0011005882 0.054007363 0.026917478
-0.011549339 -0.057695743 0.032619122 -0.011930303 0.018217761 -0.10205458 -0.19312644 0.019267265
0.0039393296 0.20922098 0.031678524 -0.0024569703 0.0061813816 -0.0025706838 0.0036412817 -0.005226281
-0.032216106 0.049623344 -0.0021448706 -0.0021102037 0.020544788 0.033649825 0.0022070059 0.035339523
-0.058362007 0.17891316 0.10106514 0.0071884207 0.017787725 0.009741889 -0.0058180327 -0.0065576634
0.0096129 -0.0048748013 0.010982011 0.019832356 0.033989962 0.2004076 -0.0747809 0.015859928
0.049838625 0.16473305 0.1834816 0.0108890245 -0.029249415 0.054788426 -0.022648025 -0.026279306
0.012094784 0.013749655 0.045225676 0.013807532 0.072261 0.3010476 0.18698025 0.09762235
-0.007905466 0.3677912 0.13324763 0.05850896 0.018139245 0.045237724 0.01858089 -0.004080308
0.0034483776 0.022708284 -0.050119083 0.014178683 -0.015771804 -0.087203 0.09160275 -0.0034617765
0.0059144464 -0.056311056 0.0068055973 0.03248055 -0.0023197096 0.02616338 -0.045787428 0.007914127
0.014894087 0.012233323 0.048197262 -0.0017587426 -0.02014046 -0.16289352 -0.114270285 0.031565145
-0.036811426 -0.019504014 -0.1992449 0.008292057 0.0066143707 0.021553854 0.07206625 0.0040265718
-0.00050468254 0.0094018085 0.08412441 0.0021591852 0.059724312 -0.012295461 0.14318347 -0.0031425229
-0.05246315 0.10049173 -0.0865346 -0.016524794 0.023027569 -0.0128884 -0.0066272235 -0.013226155
0.01970129 0.0016103729 0.00880202 -0.000990504 0.014477848 0.076161064 0.03580423 -0.021502562
0.016798792 -0.25021556 0.089953355 -0.0364945 -0.004580973 0.01650148 -0.031406038 -0.003233165
-0.004186373 -0.00036031308 0.037632894 0.0022662438 0.0083759865 0.31788507 0.09068788 0.007550129
0.013957471 -0.06040801 0.17478272 0.018316753 0.008322246 -0.0056319875 0.05955288 0.0033004412
-0.002914908 0.020147977 -0.0015342728 0.003680559 -0.0046719615 -0.09536212 -0.01795261 -0.057458103
-0.021332169 -0.061738204 -0.13603593 -0.001979933 0.015329376 -0.024069563 -0.028806994 -0.015363312
0.024082487 0.012627008 -0.049762238 -0.060723837 0.022052988 0.15115437 0.0824013 -0.023036012
0.02596169 0.057345927 0.05181489 -0.027121738 0.0075667636 0.0032871428 0.037235945 0.0074142306
-0.03064117 -0.020698657 -0.021518383 0.018608382 0.0025156266 -0.115192436 0.06536889 -0.01821222
0.0609918 0.14929563 -0.037393514 0.025070857 -0.0049112076 -0.0008325952 0.009933754 -0.027034681
-0.034632694 0.013587561 -0.0074321493 0.02427662 -0.009247469 -0.070079274 0.018856348 0.015478935
-0.031872425 0.09045969 -0.016903443 -0.0022120997 -0.014233286 -0.00081702793 -0.006872644 0.0051600314
00000000: 6768 1ebd 8aba 533d e337 243d b00e 99bc
00000010: 3b38 40bd 2eb2 e4bd a9f9 c83d ca32 483d
00000020: 2e75 803d e380 92bd 5a50 263c 71ca 633d
00000030: 1556 40bc d386 833d 4476 973c c4e5 cd3c
00000040: 2880 9e3a c1c9 e7bc b1bd 0bbd cc70 0d3d
00000050: cc54 14bd a957 edbd 40f6 dfbd e659 d53c
00000060: 38ed 783d e876 323d bc4c 5dbc 8930 f2bb
00000070: 2246 d1bc c579 a63a aeed 6d3b 000f ff3b
00000080: 49c4 5c3b 996f d63c 917e a23d e604 ba3c
00000090: 5269 e13c 9fcb b93b 7928 913e ddb5 a9bc
000000a0: 5ca4 a4bc 3723 de3d 79a6 15bd b6d8 3f3b
000000b0: 6624 6c3c 9d41 903a d336 5d3d 0b82 dc3c
000000c0: 7039 3dbc 5f52 6cbd a19b 053d 5177 43bc
000000d0: 6a3d 953c fe01 d1bd f0c2 45be 62d6 9d3c
000000e0: 7e15 813b 063e 563e 57c1 013d 1f05 21bb
000000f0: 308d ca3b eb78 28bb 92a2 6e3b 3941 abbb
00000100: 09f5 03bd d941 4b3d f590 0cbb 584b 0abb
00000110: 8b4d a83c 66d4 093d 6aa3 103b 2dc0 103d
00000120: 000d 6fbd 0335 373e 3dfb ce3d d88c eb3b
00000130: 90b7 913c 729c 1f3c 32a5 bebb abe1 d6bb
00000140: 6d7f 1d3c ccbc 9fbb e5ed 333c 7777 a23c
00000150: 0f39 0b3d a637 4d3e ba26 99bd aeec 813c
00000160: 9623 4c3d c8af 283e 9ae2 3b3e e167 323c
00000170: 789c efbc d469 603d 5a88 b9bc b347 d7bc
00000180: 3329 463c 3c46 613c 8f3e 393d fd38 623c
00000190: 93fd 933d e922 9a3e c077 3f3e 3aee c73d
000001a0: ed85 01bc 214f bc3e 1172 083e 17a7 6f3d
000001b0: c198 943c 314b 393d f336 983c 1bb4 85bb
000001c0: 2dfe 613b b906 ba3c ab49 4dbd b54d 683c
000001d0: df33 81bc 7d97 b2bd 399a bb3d f9de 62bb
000001e0: f9cd c13b 6ca6 66bd 7d01 df3b 530a 053d
000001f0: 4506 18bb 9654 d63c 998b 3bbd 41aa 013c
00000200: 5406 743c 476e 483c 7e6a 453d 9c85 e6ba
00000210: 9bfd a4bc 8fcd 26be 8a06 eabd 744a 013d
00000220: 94c7 16bd e2c6 9fbc db06 4cbe 68db 073c
00000230: 5dbd d83b b591 b03c 7897 933d 55f1 833b
00000240: ac4c 04ba 0b0a 1a3c 6b49 ac3d 1e81 0d3b
00000250: 7ba1 743d e772 49bc b09e 123e c9f2 4dbb
00000260: 9ae3 56bd 9cce cd3d 0d39 b1bd 015f 87bc
00000270: 50a4 bc3c de29 53bc 2e29 d9bb 84b2 58bc
00000280: 9a64 a13c 2613 d33a 5936 103c cdd3 81ba
00000290: 7f34 6d3c 55fa 9b3d 75a7 123d 2426 b0bc
000002a0: 9f9d 893c 411c 80be 7739 b83d 427b 15bd
000002b0: fd1b 96bb 1d2e 873c 9ea3 00bd 82e3 53bb
000002c0: d82d 89bb 67e8 bcb9 f324 1a3d 4385 143b
000002d0: 6f3b 093c d5c1 a23e 91ba b93d 1367 f73b
000002e0: e0ad 643c 646e 77bd 3efa 323e 040d 963c
000002f0: 085a 083c 898c b8bb b8ed 733d 374c 583b
00000300: 0b08 3fbb 5f0d a53c a719 c9ba 8935 713b
00000310: 4117 99bb 374d c3bd 5a11 93bc 3059 6bbd
00000320: cdc0 aebc 33e1 7cbd 014d 0bbe c3c1 01bb
00000330: 1028 7b3c 882d c5bc a5fc ebbc 67b6 7bbc
00000340: a348 c53c 83e1 4e3c 7dd3 4bbd 8fb9 78bd
00000350: 78a8 b43c 36c8 1a3e 03c2 a83d 05b6 bcbc
00000360: 9cad d43c 90e3 6a3d da3b 543d 682e debc
00000370: 9df2 f73b 1b6d 573b b884 183d 13f3 f23b
00000380: 3103 fbbc 3b90 a9bc 5247 b0bc 9b70 983c
00000390: 36dd 243b 03ea ebbd 20e0 853d cb31 95bc
000003a0: 8ad2 793d f4e0 183e f129 19bd 6661 cd3c
000003b0: 32ee a0bb 8542 5aba 2fc1 223c d677 ddbc
000003c0: 03db 0dbd 5d9e 5e3c 6389 f3bb c3df c63c
000003d0: b282 17bc b985 8fbd a178 9a3c 5c9b 7d3c
000003e0: a98c 02bd ee42 b93d 1779 8abc e0f8 10bb
000003f0: ba32 69bc d12d 56ba eb33 e1bb 7b15 a93b

bias f4 [48]
-0.066413715 -0.08077389 -0.04222622 0.0441828 -0.0026981374 0.020040674 0.07047274 0.05931364
0.06977336 0.002275805 0.17242286 -0.04511984 0.10367838 0.042023685 -0.12566866 0.027494274
0.041432418 0.056055456 0.036191855 -0.0724183 -0.057774823 -0.045922775 0.077290945 -0.0778637
0.032951657 0.22260238 0.10883542 0.05621797 0.015248423 0.08169427 0.009925825 0.008210505
0.024469955 0.0017250585 -0.0019073962 -0.059043348 0.07182869 0.042893443 0.058698606 0.14835292
0.034409795 0.0002578973 0.039309997 -0.002186534 0.11477597 -0.0027858138 -0.068406455 0.07539043
00000000: ea03 88bd c86c a5bd 67f5 2cbd 06f9 343d
00000010: 3cd3 30bb 572c a43c 0354 903d dcf2 723d
00000020: 56e5 8e3d ac25 153b 9e8f 303e 95cf 38bd
00000030: 5555 d43d 0721 2c3d 49af 00be ac3b e13c
00000040: 0ab5 293d 689a 653d e93d 143d 0c50 94bd
00000050: 4ba5 6cbd 8519 3cbd b74a 9e3d 0177 9fbd
00000060: 51f8 063d e1f1 633e 1be5 de3d d044 663d
00000070: 86d4 793c 534f a73d ed9f 223c 5b85 063c
00000080: 3775 c83c 5c1b e23a 9901 faba 70d7 71bd
00000090: ec1a 933d 09b1 2f3d f36d 703d d4e9 173e
000000a0: 49f1 0c3d 6436 8739 8503 213d f44b 0fbb
000000b0: aa0f eb3d 3392 36bb af18 8cbd 4c66 9a3d

weight f4 [48, 24, 4, 4]
-0.030367827 -0.0275114 -0.1106928 -0.00052136945 -0.15573269 0.050712712 -0.32498497 0.005695226
-0.1207455 -0.05798317 -0.04060475 -0.0055264095 -0.062123157 0.008069736 -0.23193733 -0.0056995405
-0.0016853146 0.0050969287 0.051004097 -0.019537253 0.012604891 0.007134681 0.024252305 0.01768296
-0.045478344 -0.027939882 -0.025595948 -0.023629013 0.014869703 -0.0012305 0.013444113 -0.0028579596
0.0017051196 -0.1459927 -0.004272493 -0.014639733 0.03415454 -0.106169924 -0.12791616 -0.16259785
0.0008615354 -0.0321787 -0.013293603 -0.061858073 0.006546584 -0.0888467 -0.07326751 -0.017552506
0.008383017 0.04307338 -0.022033345 -0.0027196347 -0.01699146 0.19147834 -0.02223649 0.00537758
0.013669759 -0.104576975 0.102513224 0.008258034 -0.017917478 0.057502173 -0.017513473 0.016600262
-0.021965265 0.010819631 0.02990333 -0.0038713685 -0.0017593589 0.15014546 -0.0008584611 0.0039756745
0.0031628204 0.14634953 0.15655243 -0.012117413 0.0018448982 -0.005239679 0.0016635249 -0.017068144
-0.0018699659 -0.0056544486 -0.0013552353 0.010428272 0.010430173 -0.22798412 0.17438608 -0.04030215
-0.0023531446 0.05342447 -0.004927405 0.034371193 0.03963121 -0.0879726 -0.017917352 -0.022682197
0.004685109 0.021167772 -0.0051521687 0.00046375726 0.08186596 -0.0030464926 0.054860782 0.0028315876
-0.034217633 0.0821832 0.024040999 -0.032252602 0.014947511 0.0018685631 0.0031088665 0.0013388601
-0.005627747 -0.0026070876 0.0043271994 -0.0013861744 0.0026174912 -0.021049863 0.0011248857 -0.0070675095
-0.04663573 -7.11025e-05 -0.08387845 -0.0011077842 -0.00038037793 -0.00878584 0.0032057462 -0.00057639705
0.016212434 0.005717971 -0.0037922952 -0.020154376 -0.019099962 0.0006150971 -0.06066908 -0.0026465645
0.0050903675 -0.017567897 0.02201847 0.008712638 -0.007016766 -0.0014232686 -0.008536055 -0.005141722
0.004877171 -0.022352196 0.00592644 -0.002872418 -0.009641978 0.17142424 0.025373586 -0.024184363
-0.036494944 0.14590937 0.14620113 0.018580899 0.010366669 -0.020770414 0.03483534 0.0018897324
9.830197e-05 0.06558229 -0.07668604 0.006112688 -0.0043957904 -0.1641156 0.18725106 0.0069361837
0.016556777 -0.07718375 -0.06470488 0.04896284 -0.0034691116 -0.02204775 -0.029513596 0.00077481684
0.012638113 -0.0027963412 -0.006996404 0.0025537126 -0.027921041 0.10382568 0.016614541 -0.023725988
-0.0044484558 -0.010893555 0.07193714 -0.0012280673 0.0027807185 -0.015391665 0.020741787 -0.0062484764
0.00481653 -0.0010832974 0.0007629142 -0.004485833 0.013863467 -0.0016642151 -0.100546986 -0.0018311327
0.0024126072 -0.0022037553 -0.0011831439 -0.0036729116 -0.024604721 -0.0029771433 -0.02429344 0.00070416
-0.031465437 0.007591845 -0.023644071 -0.016132878 -0.044119146 -0.07202798 -0.07884974 -0.12735137
-0.010755656 0.08900447 -0.15423495 0.013413132 -0.028977199 -0.04335955 -0.028808802 -0.25305972
0.019526867 -0.0078017972 -0.031111883 0.008798378 0.014898507 0.15354447 -0.051894303 -0.0008406405
0.030556697 -0.06330044 0.036087275 0.047815662 -0.010192828 -0.01720003 0.0047259284 0.004562412
-0.06988522 -0.018359547 0.036513098 -0.009592511 -0.22449791 0.019551417 -0.075991005 -0.021478204
0.05367779 -0.021006748 0.35153034 -0.0077274013 -0.026160615 -0.026188176 0.009869952 0.011892499
00000000: f3c5 f8bc 965f e1bc e8b2 e2bd 83ac 08ba
00000010: 6478 1fbe 22b8 4f3d 6e64 a6be 059f ba3b
00000020: 6b49 f7bd c37f 6dbd 2b51 26bd e216 b5bb
00000030: da74 7ebd ed36 043c fb80 6dbe 36c3 babb
00000040: c6e5 dcba 2304 a73b ace9 503d 970c a0bc
00000050: bf84 4e3c 0bca e93b c5ac c63c dbdb 903c
00000060: 8047 3abd 2ee2 e4bc 98ae d1bc a291 c1bc
00000070: 0ea0 733c bb48 a1ba b244 5c3c 9b4c 3bbb
00000080: 527e df3a 1c7f 15be 4500 8cbb 7edb 6fbc
00000090: a2e5 0b3d 9e6f d9bd 74fc 02be 0d80 26be
000000a0: a9d8 613a d0cd 03bd 6acd 59bc e45e 7dbd
000000b0: ba84 d63b 42f5 b5bd 470d 96bd 46ca 8fbc
000000c0: ec58 093c b66d 303d 467f b4bc e63b 32bb
000000d0: ad31 8bbc e612 443e 4d29 b6bc 6936 b03b
000000e0: 20f7 5f3c 742c d6bd 74f2 d13d b44c 073c
000000f0: adc7 92bc 6687 6b3d 6a78 8fbc 46fd 873c
00000100: 80f0 b3bc d244 313c d4f7 f43c c9b6 7dbb
00000110: 4a9a e6ba bbbf 193e 590a 61ba 6046 823b
00000120: 5247 4f3b a7dc 153e 484f 203e 1d88 46bc
00000130: 83d0 f13a 9db1 abbb a20a da3a 7ed2 8bbc
00000140: a519 f5ba f448 b9bb 27a2 b1ba 58db 2a3c
00000150: 51e3 2a3c ab74 69be 4492 323e de13 25bd
00000160: 3737 1abb 9ed3 5a3d 1276 a1bb cfc8 0c3d
00000170: 5654 223d fa2a b4bd 69c7 92bc 04d0 b9bc
00000180: 8b85 993b 0968 ad3c 86d3 a8bb 7224 f339
00000190: 57a9 a73d aaa7 47bb b3b5 603d 2892 393b
000001a0: ca27 0cbd aa4f a83d a1f1 c43c 4e1b 04bd
000001b0: 68e6 743c 93ea f43a 20be 4b3b b17c af3a
000001c0: f768 b8bb acdb 2abb 2ecb 8d3b 4bb0 b5ba
000001d0: 378a 2b3b c370 acbc e770 933a 9196 e7bb
000001e0: 1b05 3fbd dd1c 95b8 77c8 abbd 1233 91ba
000001f0: 766d c7b9 7cf2 0fbc 7f17 523b 5a19 17ba
00000200: f0cf 843c d15d bb3b 2888 78bb ca1a a5bc
00000210: 8677 9cbc 783e 213a 2480 78bd fc71 2dbb
00000220: 19cd a63b 8dea 8fbc 1460 b43c 74bf 0e3c
00000230: e6ec e5bb f88c baba cfda 0bbc e47b a8bb
00000240: add0 9f3b f41b b7bc 9532 c23b 2d3f 3cbb
00000250: 63f9 1dbc d689 2f3e 44dc cf3c 491e c6bc
00000260: b97b 15bd 4469 153e c0b5 153e f836 983c
00000270: f6d8 293c b726 aabc 80af 0e3d e6b0 f73a
00000280: 7827 ce38 0250 863d 920d 9dbd f24c c83b
00000290: 900a 90bb eb0d 28be bebe 3f3e ed48 e33b
000002a0: 14a2 873c 8412 9ebd fe83 84bd 428d 483d
000002b0: 095a 63bb 7c9d b4bc 7fc6 f1bc 141d 4b3a
000002c0: 1710 4f3c d242 37bb 1742 e5bb 305c 273b
000002d0: abba e4bc 8fa2 d43d 381b 883c 015d c2bc
000002e0: 5ac4 91bb e27a 32bc c753 933d 1af7 a0ba
000002f0: b73c 363b 522d 7cbc aeea a93c 05c0 ccbb
00000300: fbd3 9d3b 6efd 8dba 4efe 473a e5fd 92bb
00000310: 9823 633c cb21 daba 94eb cdbd 9e02 f0ba
00000320: d51c 1e3b e16c 10bb b913 9bba 3bb5 70bb
00000330: d78f c9bc 2d1c 43bb 0903 c7bc 6197 383a
00000340: e7e1 00bd 03c5 f83b 36b1 c1bc 1929 84bc
00000350: 47b6 34bd 6883 93bd f97b a1bd 6668 02be
00000360: 7e38 30bc fa47 b63d c4ef 1dbe c1c2 5b3c
00000370: 9761 edbc c999 31bd 7000 ecbc 0b91 81be
00000380: cff6 9f3c 38a6 ffbb 59de febc 1227 103c
00000390: de18 743c c33a 1d3e 1f8f 54bd 6e5e 5cba
000003a0: 0a52 fa3c a9a3 81bd 40d0 133d 5bda 433d
000003b0: d2ff 26bc 14e7 8cbc f6db 9a3b 4980 953b
000003c0: fb1f 8fbd c366 96bc c28e 153d e829 1dbc
000003d0: c8e2 65be 4b2a a03c 2ca1 9bbd 0ff3 afbc
000003e0: 3edd 5b3d 5816 acbc c9fb b33e 2436 fdbb
000003f0: c94e d6bc 9688 d6bc 94b5 213c c2d8 423c

bias f4 [24]
0.4105267 0.22705677 0.760237 0.120396204 -0.22404183 0.11376907 -0.17645605 -0.020773593
-1.2756405 0.30025965 0.80563134 0.44088063 0.003652184 0.23199722 0.16327968 -0.10602188
-0.059666615 0.29903662 -0.3645988 0.082831636 0.03149129 0.08887975 0.444068 0.005274683
00000000: 8e30 d23e 9281 683e e49e 423f 4992 f63d
00000010: 396b 65be c2ff e83d e5b0 34be 622d aabc
00000020: 3048 a3bf a2bb 993e db3d 4e3f 1bbb e13e
00000030: 7b59 6f3b ae90 6d3e ca32 273e 0022 d9bd
00000040: fb64 74bd 541b 993e b2ac babe a2a3 a93d
00000050: 03fd 003d 9606 b63d e25c e33e 3fd7 ac3b

weight f4 [24, 12, 4, 4]
0.0017897744 0.004370485 0.017155854 -0.015535262 -0.0028996672 0.03193869 -0.0030907658 0.18434326
0.002070276 0.035561506 -0.017387163 0.04350804 0.0015818969 0.009954922 0.03143797 -0.01207248
0.0056783883 -0.0068810647 -0.002255141 -0.002234508 0.0006266387 0.0017911808 0.005065457 0.17941666
-0.012148153 -0.012075738 -0.08941894 -0.000889636 -0.002659856 -0.0141956415 -0.057871684 -0.0844942
-0.0004691124 0.0062664654 0.02990007 -0.071694724 0.010854338 0.020991234 0.15136686 0.064747415
0.00946704 0.019082163 0.12502761 0.12561616 -0.0015303913 0.01545382 0.02259357 0.0071716383
-0.0013006767 -0.00058443955 0.024266312 -0.19349891 -0.008283119 0.025624344 -0.00697893 0.021362755
-0.003992898 0.043316968 -0.016231662 0.0010637731 -0.006318955 -0.019983958 0.019805223 -0.10523508
0.0047028232 -0.011536598 -0.042017218 -0.36113963 -0.0001682608 0.0050361883 0.029646264 -0.33871573
0.0046773204 0.01694197 -0.008035891 0.038595013 -0.008934599 -0.0038684658 0.00027486944 -0.017493743
0.0013439786 -0.004833856 0.039560467 0.017519444 0.00262239 0.03833516 0.017184438 -0.028330883
0.003913833 0.0309249 -0.03415575 -0.005283123 0.004896934 0.018246738 0.05701609 -0.11569326
0.0033073914 0.015169355 0.049296845 -0.11460612 -0.0015950552 -0.00398797 0.010614586 0.24226387
-0.00196862 0.024333496 0.0052899187 -0.009818709 -0.016414132 0.007873022 -0.020830752 -0.080218606
0.0037229352 -0.009178819 -0.031320125 -0.07019217 -0.0066896523 0.0028310937 -0.0065586898 0.06750963
0.0025014868 0.022369713 0.023068363 -0.08260744 -0.0017295679 -0.007400958 -0.0067964336 -0.01668606
-0.006481836 -0.013253348 0.0001948005 -0.046221867 -0.004753735 0.011943874 -0.0019402968 0.23391147
-0.0029642016 0.026264222 -0.0055070464 -0.062972434 -0.014508488 3.5935696e-05 0.007603346 -0.06895781
-0.00077028386 0.0041969665 0.054649927 -0.025087327 0.011620648 0.014224242 0.12650011 0.10012523
0.0061491025 0.024064876 0.083468266 0.048268773 0.0057889046 0.016830837 0.017614055 0.013659331
0.009185849 0.00015461788 0.049489632 0.01694688 0.0022040715 -0.007240027 0.14804281 0.13149752
-0.0056146374 -0.010308063 0.09394939 0.023098841 -3.7459715e-05 -0.010520852 0.013388773 0.036611803
0.006843166 -0.004567862 0.05125616 -0.0023483245 -0.009833899 -0.0011346317 0.14862873 -0.0024635394
-0.017093765 -0.0036437244 0.07366504 0.0030320203 0.009061945 -0.003575995 0.010582573 0.0033141999
-0.01717757 -0.015589856 -0.05451117 0.0114582395 0.015937798 0.039892443 -0.219202 -0.010545483
0.018965833 -0.02282365 0.12681197 0.031539287 -0.0056526256 0.004883415 -0.020103557 0.0036050228
-0.022040764 0.0004534929 0.04312346 -0.00041963818 -0.001820734 0.019383894 -0.12660722 0.013861972
0.0023704034 -0.011517042 -0.24866302 -0.003949531 -0.045654647 -0.2286922 0.07793856 -0.04461618
0.0022244994 0.023795933 -0.13647982 0.025834057 -0.012893689 -0.05437453 0.22457889 -0.11089231
0.005976063 0.042143963 -0.32310802 0.095797166 0.024141505 0.057309873 -0.061682347 -0.0034975638
0.005421846 -0.025463376 0.07214363 -0.008070529 -0.005560252 0.0063262465 0.03441537 0.040403962
0.05968881 0.06732749 -0.10217052 0.02765553 0.011995998 0.024114823 -0.018614212 -0.0007184536
00000000: dd96 ea3a 4936 8f3b 6f8a 8c3c 9d87 7ebc
00000010: 5808 3ebb 25d2 023d 728e 4abb 7bc4 3c3e
00000020: 78ad 073b f1a8 113d 866f 8ebc 7d35 323d
00000030: a757 cf3a f819 233c 1ac5 003d a7cb 45bc
00000040: c611 ba3b 8e7a e1bb fdca 13bb d370 12bb
00000050: 0345 243a 0ec6 ea3a 22fc a53b 00b9 373e
00000060: 0c09 47bc 51d9 45bc 4721 b7bd 7636 69ba
00000070: fb50 2ebb d694 68bc dc0a 6dbd 4c0b adbd
00000080: 33f3 f5b9 ec56 cd3b fef0 f43c afd4 92bd
00000090: 65d6 313c cff5 ab3c eaff 1a3e 4b9a 843d
000000a0: a51b 1b3c 3252 9c3c 3d07 003e 86a1 003e
000000b0: 6997 c8ba 0532 7d3c 2716 b93c 1000 eb3b
000000c0: 787b aaba 1335 19ba 25ca c63c 9424 46be
000000d0: ebb5 07bc 25ea d13c 82af e4bb f200 af3c
000000e0: dbd6 82bb 226d 313d 43f8 84bc 4d6e 8b3a
000000f0: 3d0f cfbb 66b5 a3bc 903e a23c 7d85 d7bd
00000100: 241a 9a3b 0004 3dbc 3f1a 2cbd 4be7 b8be
00000110: 2a6f 30b9 9c06 a53b b9dc f23c 266c adbe
00000120: 3544 993b e3c9 8a3c f8a8 03bc ce15 1e3d
00000130: 6d62 12bc 1686 7dbb 5a1c 9039 0a4f 8fbc
00000140: 7028 b03a 5365 9ebb 280a 223d f084 8f3c
00000150: 67dc 2b3b 5405 1d3d 61c6 8c3c 2b16 e8bc
00000160: 9c3f 803b 3756 fd3c e6e6 0bbd 0c1e adbb
00000170: 7676 a03b 2f7a 953c b489 693d 97f0 ecbd
00000180: d2c0 583b e388 783c 7deb 493d 9db6 eabd
00000190: 2c11 d1ba 84ad 82bb cde8 2d3c 0514 783e
000001a0: f703 01bb 0a57 c73c 0e57 ad3b a7de 20bc
000001b0: ee76 86bc d9fd 003c 41a5 aabc a749 a4bd
000001c0: 7dfc 733b c262 16bc 8849 00bd eac0 8fbd
000001d0: df34 dbbb df89 393b 47ea d6bb 7d42 8a3d
000001e0: fcef 233b b040 b73c ddf9 bc3c 172e a9bd
000001f0: abb2 e2ba bc83 f2bb 9eb4 debb 34b1 88bc
00000200: 9565 d4bb 9224 59bc 5c43 4c39 2453 3dbd
00000210: 38c5 9bbb 3db0 433c 8f51 feba 7d86 6f3e
00000220: 0d43 42bb 1128 d73c 7474 b4bb b1f7 80bd
00000230: 02b5 6dbc a9b9 1638 7d25 f93b c139 8dbd
00000240: e0ec 49ba b586 893b 9ad8 5f3d f083 cdbc
00000250: 8864 3e3c cc0c 693c 3f89 013e 750e cd3d
00000260: 697e c93b b423 c53c 69f1 aa3d 7ab5 453d
00000270: dab0 bd3b d3e0 893c 5a4b 903c 63cb 5f3c
00000280: 3e80 163c ec20 2239 a4b5 4a3d 2fd4 8a3c
00000290: 2f72 103b c03d edbb 8998 173e 49a7 063e
000002a0: fefa b7bb 26e3 28bc 8a68 c03d c839 bd3c
000002b0: 101e 1db8 a75f 2cbc 965c 5b3c 42f6 153d
000002c0: a33c e03b 01ae 95bb fbf1 513d 59e6 19bb
000002d0: 5d1e 21bc ecb7 94ba 2132 183e 5573 21bb
000002e0: 3908 8cbc 8dcb 6ebb b2dd 963d dcb4 463b
000002f0: 8d78 143c 3e5b 6abb 8762 2d3c 0c33 593b
00000300: fab7 8cbc 986c 7fbc 1b47 5fbd 57bb 3b3c
00000310: fc8f 823c 4266 233d 7d76 60be f6c6 2cbc
00000320: 3c5e 9b3c aaf8 babc ffda 013e 572f 013d
00000330: a939 b9bb 0e05 a03b 37b0 a4bc 3f42 6c3b
00000340: d58e b4bc c9c2 ed39 3aa2 303d e202 dcb9
00000350: b2a5 eeba f9ca 9e3c 53a5 01be 531d 633c
00000360: c558 1b3b fab1 3cbc 85a1 7ebe 116b 81bb
00000370: 5e00 3bbd 4a2e 6abe 409e 9f3d 75bf 36bd
00000380: e8c8 113b b0ef c23c 5ec1 0bbe f2a1 d33c
00000390: 0d40 53bc d4b7 5ebd 02f8 653e 821b e3bd
000003a0: dad2 c33b 269f 2c3d 6a6e a5be 4e31 c43d
000003b0: 68c4 c53c c2bd 6a3d a1a6 7cbd 6237 65bb
000003c0: bea9 b13b 9298 d0bc 0ac0 933d 413a 04bc
000003d0: c632 b6bb 674c cf3b 22f7 0c3d a07e 253d
000003e0: 417c 743d ffe2 893d c73e d1bd da8d e23c
000003f0: dd8a 443c 738c c53c d57c 98bc 9b56 3cba

bias f4 [12]
0.1387284 0.15523635 0.011614801 0.006514744 0.058000494 0.156056 0.12132485 -0.080395184
-0.043848645 0.07956011 -0.25961882 -0.17703505
00000000: d10e 0e3e 47f6 1e3e 024c 3e3c a279 d53b
00000010: ed91 6d3d 25cd 1f3e 2a79 f83d 3ba6 a4bd
00000020: a39a 33bd 69f0 a23d c2ec 84be ad48 35be

weight f4 [12, 3, 4, 4]
-0.04545197 -0.047074977 -0.0074657993 -0.030360987 0.04199833 0.18095395 0.14789888 -0.046374965
0.14298636 0.29018077 0.15076512 -0.048925728 0.06315197 0.07942448 0.008225909 -0.028567547
-0.05248596 0.0048067425 0.04226304 -0.038601756 0.08490192 0.25949806 0.24307142 0.012017255
0.18202648 0.35856566 0.23112798 -0.0012099439 0.051400684 0.11928114 0.042956997 -0.047273584
-0.02385446 -0.063997276 -0.048712652 -0.0314773 -0.015526174 -0.0072124987 -0.037814308 -0.1020325
0.05495996 0.058333 -0.06862003 -0.12619503 0.051837873 0.0160092 -0.06536001 -0.049218137
0.14534362 0.8321211 0.7354347 0.06119233 0.20258889 0.6768622 0.58848643 0.14219248
-0.019625723 0.028723426 -0.022978764 -0.06555516 0.021311682 0.04800058 0.02755958 0.0043063904
0.26105976 1.1800786 0.9934887 0.1550448 0.17273125 0.64656043 0.6078311 0.15801361
-0.059515744 0.003966288 -0.012269218 -0.06512668 0.011095775 0.035190355 0.024114752 0.006185602
0.2249458 0.92315537 0.75437707 0.107856594 0.22849585 0.75058776 0.6131016 0.10395846
-0.04503492 0.0061338176 -0.04032032 -0.08145876 0.0076506594 0.025524782 -0.0005153882 -0.013778928
0.06327998 0.13463601 0.0065505495 0.058934387 0.051407356 0.010160085 -0.26869884 0.050350405
0.08536721 0.14149341 -0.08593381 0.11574205 0.020466205 0.0724627 -0.0044194283 0.04668106
0.036321506 0.03825382 -0.076552376 0.048600525 -0.050874308 -0.22021781 -0.48537385 -0.031345412
0.010666276 -0.04735684 -0.27714702 0.048569866 0.012410483 0.010041262 -0.06752203 0.04629979
0.012917219 0.021516848 -0.08415109 0.03512892 -0.060106672 -0.26659584 -0.51406765 -0.029196313
0.024957843 -0.05294331 -0.28713638 0.05406805 0.012934525 0.028957866 -0.0646614 0.029856822
0.06842789 0.034087453 0.026586162 -0.055284508 0.13124515 0.05807854 0.17007491 -0.015756335
-0.019022005 -0.2119148 0.06785124 0.02687442 -0.009644359 -0.048448376 0.115737006 0.06275632
0.05386577 -0.03274975 -0.014917025 -0.0474507 0.05733223 -0.10794179 0.03520234 -0.06353335
-0.11241713 -0.39531258 -0.08654314 -0.043655522 -0.029516086 -0.122814745 0.059832495 0.054740127
0.038787227 -0.039833896 -0.019820899 -0.059616745 0.05470052 -0.1220924 0.025831772 -0.053025503
-0.11825942 -0.41195792 -0.09924034 -0.044105325 -0.04373904 -0.12506846 0.058579694 0.0369618
-0.022872081 -0.026947847 -0.0009912371 4.7711033e-05 -0.056081258 -0.06166468 0.01817481 0.011943373
-0.21988182 -0.2578745 -0.059088882 -0.02263379 -0.20050676 -0.21829274 -0.066241406 -0.030164564
0.0030448511 0.023540208 0.00669987 -0.014324554 0.0015806673 0.01957409 0.045665476 0.020075772
-0.082430676 -0.09159522 0.026553715 0.035346646 -0.09141682 -0.08320861 -0.005120601 0.0035190438
0.0049959864 0.009046503 -0.009822437 -0.018422727 -0.008802838 0.006546646 0.030258486 0.0061662053
-0.01883469 -0.03386494 0.0548274 0.056368448 -0.034141626 -0.05355373 0.015566992 0.023572627
-0.05629432 -0.13202238 -0.0054124026 -0.009675911 -0.15421541 -0.5066614 -0.29497355 -0.12177447
-0.012549603 -0.24376114 -0.12157827 -0.0542659 0.015803939 -0.052901886 -0.014475939 -0.010572727
00000000: d82b 3abd b1d1 40bd aaa3 f4bb 9bb7 f8bc
00000010: 7106 2c3d fe4b 393e ce72 173e adf3 3dbd
00000020: 046b 123e 9392 943e 2c62 1a3e 5866 48bd
00000030: d255 813d 4da9 a23d f7c5 063c 7d06 eabc
00000040: 85fb 56bd e181 9d3b 021c 2d3d e01c 1ebd
00000050: 0fe1 ad3d eedc 843e b7e7 783e 05e4 443c
00000060: 2665 3a3e eb95 b73e d0ac 6c3e fb96 9eba
00000070: 8689 523d ac49 f43d adf3 2f3d f2a1 41bd
00000080: 6e6a c3bc 0111 83bd eb86 47bd 57ee 00bd
00000090: 7e61 7ebc d356 ecbb 2de3 1abd 6af6 d0bd
000000a0: b21d 613d 95ee 6e3d a988 8cbd 4539 01be
000000b0: f353 543d ba25 833c 78db 85bd f598 49bd
000000c0: f5d4 143e e305 553f 7345 3c3f cfa4 7a3d
000000d0: 7673 4f3e d746 2d3f 0ca7 163f e89a 113e
000000e0: 20c6 a0bc 644d eb3c f63d bcbc c941 86bd
000000f0: d695 ae3c 429c 443d a1c4 e13c 9f1c 8d3b
00000100: a0a9 853e d10c 973f 4755 7e3f 10c4 1e3e
00000110: 76e0 303e fc84 253f d29a 1b3f 52ce 213e
00000120: c8c6 73bd a3f7 813b d504 49bc 2361 85bd
00000130: 0ecb 353c c323 103d 4d8c c53c 97b0 ca3b
00000140: 3158 663e e953 6c3f db1e 413f ebe3 dc3d
00000150: d1fa 693e 8526 403f 3af4 1c3f 2ce8 d43d
00000160: 8976 38bd 31fe c83b eb26 25bd dad3 a6bd
00000170: 62b2 fa3b 5919 d13c 1e1b 07ba 03c1 61bc
00000180: ef98 813d 06de 093e fea5 d63b 2f65 713d
00000190: 8590 523d 7c76 263c e592 89be 3a3c 4e3d
000001a0: 01d5 ae3d a6e3 103e 11fe afbd 2b0a ed3d
000001b0: bea8 a73c 5367 943d dad0 90bb a434 3f3d
000001c0: dcc5 143d 0ab0 1c3d 7ec7 9cbd 5811 473d
000001d0: 9461 50bd c780 61be ec82 f8be 0c64 00bd
000001e0: 9bc1 2e3c 3ff9 41bd 37e6 8dbe 32f1 463d
000001f0: 5755 4b3c 1b84 243c fd48 8abd d9a4 3d3d
00000200: bea2 533c 1a44 b03c 6857 acbd 58e3 0f3d
00000210: 6a32 76bd 407f 88be f099 03bf 1b2d efbc
00000220: 6474 cc3c 16db 58bd 8a03 93be 7676 5d3d
00000230: 54eb 533c 0c39 ed3c 326d 84bd 4b96 f43c
00000240: ec23 8c3d 499f 0b3d 39cb d93c 0272 62bd
00000250: 2165 063e c3e3 6d3d 1e28 2e3e 6e13 81bc
00000260: 09d4 9bbc 3100 59be 97f5 8a3d be27 dc3c
00000270: 6003 1ebc ce71 46bd 8607 ed3d 6386 803d
00000280: 5ba2 5c3d 9a24 06bd 8a66 74bc aa5b 42bd
00000290: 33d5 6a3d 9610 ddbd 5430 103d c61d 82bd
000002a0: f43a e6bd 6966 cabe 883d b1bd 22d0 32bd
000002b0: b8cb f1bc 4c86 fbbd eb12 753d 2f37 603d
000002c0: 5bdf 1e3d de28 23bd 705f a2bc b030 74bd
000002d0: a70d 603d 950b fabd 279d d33c 4531 59bd
000002e0: ff31 f2bd 26ec d2be 853e cbbd c9a7 34bd
000002f0: b527 33bd f211 00be 43f1 6f3d 4265 173d
00000300: 3b5e bbbc bbc1 dcbc 66ec 81ba 551d 4838
00000310: 76b5 65bd 1a94 7cbd 57e3 943c 23ae 433c
00000320: b328 61be 2008 84be 2f07 72bd 7f6a b9bc
00000330: a551 4dbe 2288 5fbe 93a9 87bd ad1b f7bc
00000340: 208c 473b 65d7 c03c 958a db3b 89b1 6abc
00000350: 652e cf3a d859 a03c b90b 3b3d f275 a43c
00000360: 6ad1 a8bd 4696 bbbd 2d87 d93c a5c7 103d
00000370: be38 bbbd 4769 aabd b7ca a7bb c29f 663b
00000380: 5fb5 a33b c937 143c 49ee 20bc 42eb 96bc
00000390: c739 10bc 3f85 d63b a5e0 f73c e10d ca3b
000003a0: 354b 9abc f7b5 0abd b292 603d 9ae2 663d
000003b0: 17d8 0bbd 285b 5bbd b20c 7f3c 621b c13c
000003c0: df94 66bd e030 07be 865a b1bb b687 1ebc
000003d0: a5ea 1dbe 90b4 01bf c606 97be e564 f9bd
000003e0: da9c 4dbc 859c 79be 07fe f8bd ec45 5ebd
000003f0: 4377 813c a6af 58bd 7d2c 6dbc 3b39 2dbc

bias f4 [3]
0.0643052 0.10345856 -0.19389594
00000000: 72b2 833d 15e2 d33d a88c 46be
